code/LPD_learning/utils/precomputed/P2S_state.pt (torch, 270359 bytes, 6 tensors)

fc1.weight f4 [200, 33]
000000 3c 91 06 bd 93 37 50 bd b1 0e 38 3d d8 c1 c5 3c
       -0.03285335 -0.05083425 0.044935886 0.024140283
000010 97 3c fd 3b 5b 50 b0 bc 36 d2 66 bd 99 ea 77 3b
       0.00772817 -0.021522691 -0.056352817 0.003782904
000020 c0 6e 8f 3b 5a 36 9c bb 37 a1 65 bb c3 52 7d 3d
       0.004377216 -0.0047672214 -0.0035038718 0.061846506
000030 dd 9b 2d bc 14 68 4f bc 3f 43 27 3c 2f 28 46 3b
       -0.010596243 -0.0126590915 0.010208904 0.0030236354
000040 56 89 53 3d 1f 42 ef bc 72 62 90 3c 0a c2 d0 3c
       0.051644646 -0.029206334 0.017625067 0.02548315
000050 44 b3 c6 bc ee 14 00 bd ea 0e cf 3b ff 0f b9 bc
       -0.024255402 -0.03126996 0.0063189166 -0.022590635
000060 c3 47 fc bc f8 16 f1 bb 94 0f cb 3a e6 9b cd b9
       -0.030795937 -0.0073574744 0.0015492314 -0.000392168
000070 5e 50 03 3c ae 96 6b 3c 3b 75 f6 bc c6 4f 5c 3c
       0.0080147665 0.014379187 -0.030085197 0.013446754
000080 f8 e4 cc ba 32 05 8a 3c 22 10 ab bb b8 82 5b bb
       -0.0015632203 0.01684818 -0.005220429 -0.0033494662
000090 06 3a ae ba ff 13 51 3c fe ce 47 bb 35 88 37 bb
       -0.0013292439 0.012761115 -0.0030488367 -0.002800477
0000a0 0b eb ec bc e1 29 22 3d 42 c3 74 3c f3 0b 32 ba
       -0.028920671 0.03959072 0.014939131 -0.00067919417
0000b0 c8 26 1e 3b 08 70 75 bd b3 ea 5f bc 7e e0 80 3c
       0.0024132002 -0.059921294 -0.0136667965 0.015732046
0000c0 0e 85 f1 3c b9 41 e9 bb 69 04 8f 3b f9 87 e5 3b
       0.02948239 -0.0071184305 0.0043645394 0.0070047346
0000d0 e4 6d 0d bc a0 33 03 bd aa 20 8c 3a 67 d1 d0 38
       -0.008632157 -0.032031655 0.0010690887 9.957217e-05
0000e0 c2 a3 de bb d4 b6 d0 bb ab 6f 9c 3b 8b 27 10 3d
       -0.006794424 -0.006369451 0.004774054 0.03519396
0000f0 30 ff bc bc e4 4d 5c bc 38 b6 ac ba 11 0d 44 3b
       -0.023070902 -0.013446305 -0.0013176864 0.0029915015
000100 6d d0 70 b8 8c 14 a1 ba e7 c1 c3 3c 78 85 b4 bc
       -5.741457e-05 -0.0012289449 0.02389617 -0.0220363
000110 2c 6c 0d bd f0 90 ce 3c 63 8f b7 3d 41 13 a9 bc
       -0.03452699 0.025215596 0.08962896 -0.020639064
000120 42 b3 c0 bc d0 a7 15 3d df 2f 95 3d 58 2c 22 3d
       -0.023522977 0.03653699 0.07284521 0.03959307
000130 0f 02 ab bb 86 93 ca bc 3c 3b f5 bb c1 02 fd ba
       -0.0052187513 -0.024728548 -0.007483868 -0.0019303189
000140 74 fb 20 3d 5e fa 3b 3d ea 60 94 3b f4 32 99 bc
       0.039302304 0.045893066 0.0045281546 -0.018701054
000150 10 c3 00 bd 76 67 9e bc 9f f2 19 bd ae 13 ce 3c
       -0.031436026 -0.019336443 -0.037584897 0.025155868
000160 35 70 cb 3b 29 02 b2 ba 06 da 4a 3b ca 4f 9b bb
       0.0062084445 -0.0013580966 0.0030952706 -0.004739736
000170 2d 9a 87 bc 59 27 03 bd 8a fb e7 bc f3 e2 31 3c
       -0.016553009 -0.032019947 -0.028318185 0.010857332
000180 a4 19 00 bb 39 0b c0 b8 e9 5b b6 3a bc 83 7f 3c
       -0.0019546533 -9.157364e-05 0.0013912889 0.015595373
000190 61 20 5d 3c b6 bc 88 bb 7b 2a f1 3c 52 f8 24 bd
       0.013496489 -0.0041728867 0.029439202 -0.04027588
0001a0 30 d9 06 bc 7f 16 97 3a 4f ff be 3b a2 4b 6c 3c
       -0.0082304925 0.001152709 0.005828775 0.014422329
0001b0 98 f8 0d bd a6 9d 5a 3b 6f 63 74 3b c8 78 42 3c
       -0.034660906 0.0033358126 0.0037290712 0.011869617
0001c0 12 57 0e bc 84 73 23 3c 7b 2a b0 3c 86 e1 16 bc
       -0.008687751 0.009976272 0.021504631 -0.009209042
0001d0 8e fb 4d bb a8 da 2a bc 4f 5c a9 3c 6d 2d fb bb
       -0.0031430456 -0.010428108 0.020673899 -0.0076653273
0001e0 b5 77 65 bb 8d 82 bc bb 16 32 3d 3b 0f 21 26 3b
       -0.0035013978 -0.0057528676 0.0028868965 0.0025349294
0001f0 06 bf 02 39 e5 2f d3 3a 54 3e 6c bc 02 d0 a9 bb
       0.00012468928 0.0016112296 -0.014419157 -0.005182267
000200 05 11 7e 38 38 80 b0 3b ac 01 1f bb 9b 99 14 3a
       6.057417e-05 0.0053863786 -0.002426247 0.0005668641
000210 5d 56 11 bd 10 2f 4f bd d2 4b fb bc b6 d1 57 3c
       -0.035482753 -0.05058199 -0.030675802 0.013172558
000220 d9 21 a4 3c 28 46 8d 3d c3 15 01 3c 37 aa 82 ba
       0.020035671 0.06898147 0.007878724 -0.0009968941
000230 1c eb 16 bc 6c 08 1a bc 1f b1 60 3c 2d 99 7b bd
       -0.009211328 -0.009401422 0.013714104 -0.061425377
000240 e4 a0 11 bc 77 f6 85 3a a7 f3 f7 ba 1c 92 28 bc
       -0.008888457 0.0010220547 -0.0018917219 -0.010288741
000250 de 3e 05 bd 0e 95 26 3d 1f d4 52 3c 20 a7 a0 3c
       -0.032530658 0.040669493 0.012867956 0.019610941
000260 ab ae a9 3c f8 86 eb 3c f5 62 1e bc b1 6b 3b bc
       0.020713171 0.028750882 -0.009667148 -0.01143925
000270 3b b1 03 3d 72 02 84 bb ec ec ac 3a b4 9e 36 bc
       0.032151442 -0.004028612 0.0013193167 -0.011146236
000280 9a 93 0d 3b ee 8f ce bc cc e1 53 3c 88 d5 4b bb
       0.002160287 -0.025215115 0.012932252 -0.0031102616
000290 bd 12 e6 bb c9 b1 42 3d 67 80 49 3d 99 93 66 bd
       -0.0070212767 0.04753283 0.04919472 -0.056293104
0002a0 7b 3d b8 bc cc ac 49 bc 4d 27 13 3d 3e 37 8b 3d
       -0.022490254 -0.012309264 0.035926152 0.06797646
0002b0 a8 e9 46 ba 45 1a d0 bb 1e e3 36 3b 9c a4 07 3c
       -0.0007587918 -0.006350788 0.0027906368 0.008278992
0002c0 86 0a 71 bd ba 11 00 3c 5f 94 48 3c 4a 6d 19 bc
       -0.058847927 0.007816726 0.012242406 -0.009364435
0002d0 67 38 8c bb c6 98 4c bd fc c0 62 3c 59 7f 16 bc
       -0.0042791846 -0.049950384 0.013839956 -0.0091856355
0002e0 46 d6 84 bc ab 5b 91 3c a4 67 cc 3c 7e a6 75 ba
       -0.016215455 0.017743906 0.024951763 -0.00093708176
0002f0 65 56 c1 3c c7 79 0e 3c 15 e0 95 3b 49 74 cb 3a
       0.023600766 0.008696026 0.004573832 0.0015522327
000300 8a 1a df bb 7e ac 66 bc c8 32 e8 bb 4c 26 dc 3c
       -0.0068085836 -0.014079211 -0.0070861317 0.02687373
000310 7e d8 bd bb a9 08 11 3c c9 ce 42 3d 69 fc 87 3d
       -0.00579363 0.008852162 0.047560487 0.0663994
000320 e8 53 39 3d 64 f0 bf 3c 8e cd 09 3d 02 f1 b4 3d
       0.045246035 0.023430057 0.033643298 0.08835031
000330 b4 cb b6 3b 2f c0 26 3b e1 b4 e8 3b 68 93 51 3c
       0.0055784825 0.002544414 0.0071016406 0.012791492
000340 be 06 ba bc 5c d3 78 3d 33 fd b5 bc 52 ec 06 bc
       -0.022708293 0.060748443 -0.022215461 -0.008235054
000350 ec 09 02 bc 88 f0 56 bc 49 ec 5e bd 9f 4b 15 3d
       -0.007936936 -0.013118871 -0.054424558 0.03644907
000360 bc 44 3b bc 44 f4 e1 bc e1 f7 73 bc 10 9c db bc
       -0.011429962 -0.027582295 -0.014890642 -0.026807815
000370 8b a8 62 3c 73 d7 1b 3c 5b 05 f6 bc 0d 0c a2 bb
       0.013834129 0.009511816 -0.03003185 -0.004945284
000380 d9 a7 ec bb cf 1a 90 bc 78 9c 61 3b 66 80 a6 bc
       -0.0072221574 -0.017590908 0.0034425538 -0.020324897
000390 db 4a fb 3c 77 2f a8 bb b8 ca 42 bc 0f 3f c4 39
       0.030675342 -0.0051326114 -0.011889152 0.00037431016
0003a0 02 9a 59 bd ec 16 35 3d 6b 64 81 3b 33 77 1a 3d
       -0.05312539 0.044211313 0.0039487383 0.037711333
0003b0 57 41 53 bd 91 fa bb bc 46 5b ff bb a9 75 ee bc
       -0.051575985 -0.022946628 -0.007792863 -0.02910884
0003c0 7e 37 1b 3d 82 e7 12 3c db 2e cf 3a 51 44 0c bc
       0.03789472 0.008966329 0.0015806811 -0.00856121
0003d0 d8 42 07 3b 1c 75 43 3c 30 94 aa 3c 81 8f 51 3a
       0.0020639207 0.0119297765 0.020822614 0.0007994101
0003e0 ed 03 c2 39 ec 91 bd 3a b8 3b cc bb 34 86 a7 3b
       0.00037005488 0.0014463044 -0.006232705 0.005112434
0003f0 ad d6 fb 3a 3c fd bd bb dd ea 5d bb 33 b8 25 bc
       0.0019213759 -0.00579801 -0.0033861913 -0.010114717

fc1.bias f4 [200]
000000 75 c9 03 bc 40 d1 54 3a 43 ed bc 3c 75 ed 7b 3c
       -0.008043637 0.0008118339 0.023062354 0.015376438
000010 27 5c 06 bc a2 e0 19 3d e4 26 0f 3d 2f b5 81 39
       -0.008200682 0.037567742 0.0349492 0.0002473979
000020 b6 1e c6 bb 0f 1e 41 3c d7 78 ba b9 40 f8 dc bb
       -0.0060461415 0.011786952 -0.00035566717 -0.006743461
000030 0e 18 e7 bc f6 50 98 3b 1c 7e 3b 3d 96 6d 42 3c
       -0.028209712 0.004648323 0.045774564 0.011866948
000040 a4 56 cc 3c 77 9a a7 3c 77 2a 4c 3c 27 fb 99 3b
       0.024943657 0.020459397 0.012461296 0.004699129
000050 74 68 93 b8 05 0c 23 3d 72 4e c0 3c 2a 71 24 ba
       -7.028962e-05 0.039806385 0.023474906 -0.0006272966
000060 fc 3e be 39 b1 e9 a6 3c 26 eb ce 3c c6 3c a2 ba
       0.0003628655 0.020375105 0.025258612 -0.0012377731
000070 56 53 99 3b 83 6f 8f 3b 57 61 bc ba ed ca df 3a
       0.004679124 0.004377307 -0.0014372271 0.0017074026
000080 18 95 3d 3d 8a 44 76 3a 32 46 91 3c 83 bb df 3c
       0.046284765 0.00093943684 0.017733667 0.027311092
000090 39 9d 04 3b 97 4a 84 3c 83 a6 70 3c 62 2c 4c b9
       0.0020235314 0.016148848 0.014688137 -0.0001947149
0000a0 79 e9 2c ba 30 96 62 39 f0 8b 64 3a d7 4f 47 ba
       -0.00065960694 0.00021608989 0.0008718362 -0.00076031446
0000b0 62 05 1b 3b 04 26 31 3b 5f b0 3d 3d 0c db 17 3d
       0.0023654331 0.0027030716 0.04631078 0.037074134
0000c0 4e 1b 15 bc 24 57 1f 3d 52 5d 04 3b e7 e9 c3 bb
       -0.009100748 0.038901463 0.0020197225 -0.005978811
0000d0 df b6 c5 b9 8d a2 07 bd 2e a4 88 bc d5 8b e4 3c
       -0.00037711018 -0.033114005 -0.01667985 0.027898708
0000e0 25 6f c7 3c 5f 00 ba 3c e3 a5 e1 3a 11 73 29 3d
       0.02434499 0.022705255 0.0017215576 0.0413695
0000f0 bf 61 7f ba aa a6 df bc b0 e6 4b bb 9d 7f 18 3d
       -0.00097420433 -0.027301151 -0.0031112842 0.037231077
000100 8c 1b b0 bb f4 b6 0b bb 09 d6 c1 3a be 6e 28 3a
       -0.0053743776 -0.0021318765 0.0014788519 0.0006425193
000110 8a 0a 1b 3c 2c 23 4e b8 17 da 42 3b 1d ea a3 3a
       0.009462962 -4.9146984e-05 0.0029732042 0.0012505684
000120 86 3d e2 3a 50 99 19 3b 37 71 a2 3c 22 bb 90 3c
       0.0017260767 0.0023437329 0.019829376 0.017667357
000130 5f 34 84 ba 56 d6 da 3c fa a2 38 3a 06 f1 84 3b
       -0.0010086409 0.026713531 0.00070433284 0.0040570525
000140 2b 39 ef bc 1a 70 77 3b e8 eb 28 bb 55 49 30 3d
       -0.029202064 0.0037756027 -0.0025775377 0.043038685
000150 3e 56 c4 39 c7 f8 c5 ba 50 92 db 3c 2d 7e a1 bc
       0.0003744829 -0.0015104049 0.026803166 -0.019713486
000160 76 ba 3a 3b 19 33 b1 3c 04 d8 0b 3a 1a 78 b8 3b
       0.0028492487 0.02163081 0.0005334618 0.0056295516
000170 92 46 c1 3a d8 95 e5 3c 4d 1a 60 3b 39 85 80 3c
       0.0014745763 0.028025553 0.0034195364 0.015688526
000180 8c 1a be 3c 7f ca 21 3c 66 29 da 3b cc 24 6b 3a
       0.023206018 0.009874939 0.006657767 0.0008970022
000190 10 b0 9c 39 72 d3 00 3d 46 06 c4 bc 2b ac cd ba
       0.00029885815 0.03145165 -0.023928773 -0.0015691569
0001a0 d7 7c b4 3a 58 b1 2e 3b 41 dc bc 3c 2e 5a 3e 3b
       0.0013770115 0.0026655998 0.023054244 0.002904545
0001b0 92 17 ba b9 15 50 d8 3c 0c d2 88 38 c9 30 83 39
       -0.00035494246 0.026405374 6.5241096e-05 0.00025022615
0001c0 69 94 b4 3c 60 3e 3b 3b fa 9f 9a 39 f4 6c ec 3c
       0.022043424 0.0028571114 0.0002949236 0.028860547
0001d0 15 d9 81 3b 1e b7 91 bb b5 0b 55 bc 07 ef 70 3b
       0.003962646 -0.004446878 -0.013003279 0.0036763565
0001e0 bf fe e6 3c b1 0d 1e bb 79 fe 16 3c 8b 29 2d 3c
       0.028197644 -0.0024117047 0.009215944 0.010568987
0001f0 d4 d7 11 3b 44 f2 4b bc ca 3a d5 3c ef bb 74 3c
       0.0022253888 -0.012447897 0.02602901 0.014937385
000200 3a f0 b5 bc 41 11 9e 3b df 2b 94 bc b8 ac d6 bc
       -0.022209276 0.004823834 -0.018087326 -0.026205406
000210 ad 59 82 bc 79 6a dc 3b 45 58 20 3c 3d f1 06 bb
       -0.015911901 0.0067265597 0.00978667 -0.0020590567
000220 e6 fe fc bc 7b f4 15 3d 38 9f 86 ba be 5c d6 3c
       -0.030883264 0.036610108 -0.001027084 0.02616727
000230 04 73 19 3d 2c e4 6d 3c 35 16 a0 b2 24 76 ce 3c
       0.037463203 0.014519732 -1.863655e-08 0.025202818
000240 43 38 d7 3c 40 43 22 bd dd 10 ce 3c 4e 04 d5 bc
       0.026271945 -0.039614916 0.025154525 -0.02600303
000250 a4 b0 2a 3d 1b 87 15 b9 5a 75 a3 3a 20 65 d1 39
       0.041672364 -0.00014260078 0.0012470887 0.0003993893
000260 f9 11 a9 3a b4 38 18 3d c1 62 bd 3c ee 48 00 3d
       0.0012899033 0.03716345 0.023118379 0.03131955
000270 3f 00 ac bc ad 22 35 3c 5e 5f 02 bd be d0 10 bc
       -0.020996211 0.011055631 -0.03182923 -0.0088388305
000280 17 dd 5a 3a 2f 51 f8 3a 3e bb 71 3a 6b 29 a6 3c
       0.0008348985 0.0018945093 0.00092213217 0.020283422
000290 48 01 57 bb 03 94 a9 3b 02 47 1b 3d 78 c6 14 3c
       -0.003280716 0.005175115 0.037909515 0.009080522
0002a0 ea 81 0a bd 4d f3 82 39 7f e8 f2 3c 51 57 df 37
       -0.033815302 0.00024976805 0.029651878 2.6624331e-05
0002b0 6b d7 a8 3c fd a7 1d 3d 9e 5f 45 3a 41 5b 87 3a
       0.020610532 0.038490284 0.00075292017 0.0010326878
0002c0 c1 01 aa 3c 23 6d 15 3c d5 3a 31 39 9f 32 eb 3c
       0.02075279 0.0091202585 0.00016901952 0.028710661
0002d0 b1 c6 97 3c 55 d8 23 3d bb fc 5a bc 49 da 81 bb
       0.01852736 0.040001232 -0.01336592 -0.003962789
0002e0 4f 89 e3 3b 22 e2 13 3b df 19 24 3d 01 56 af 3c
       0.0069438587 0.0022565206 0.040063735 0.021403315
0002f0 52 61 d5 3c 2a ab 07 3c 38 de 5c 3c 24 c4 e5 bc
       0.026047383 0.008280555 0.013480715 -0.028047629
000300 b4 b7 78 3b c1 be da 39 41 9e 25 3d 66 16 04 ba
       0.0037951292 0.00041722323 0.040434126 -0.0005038738
000310 13 95 25 3d f6 9c cb 3c 2e cc bd bb 04 0d c4 b9
       0.04042537 0.024855118 -0.0057921624 -0.0003739373

fc2.weight f4 [200, 200]
000000 97 02 e8 80 eb c3 a1 81 79 3b 38 01 a8 02 9d 81
       -2.1306764e-38 -5.942319e-38 3.3838132e-38 -5.7676503e-38
000010 44 87 c7 80 e5 e9 d0 00 67 a6 62 00 11 e5 27 00
       -1.8323788e-38 1.9185689e-38 9.059573e-39 3.663758e-39
000020 30 d8 69 00 2c 94 5f 01 3b ea 9c 01 9c 08 ad 00
       9.72028e-39 4.106494e-38 5.7641454e-38 1.5890629e-38
000030 be 2c 24 81 a2 ca 1e 80 99 6c 39 81 f8 4f e3 80
       -3.0154144e-38 -2.827756e-39 -3.4057049e-38 -2.0875345e-38
000040 0d a6 21 81 d9 b0 17 81 22 c3 95 00 ad 4c 04 80
       -2.9690165e-38 -2.7861202e-38 1.375349e-38 -3.94848e-40
000050 0e 19 12 80 ef 39 c4 00 08 e8 56 80 5b 2b 71 00
       -1.662027e-39 1.802054e-38 -7.98109e-39 1.0392964e-38
000060 cd e8 0c 80 3d 2e 6a 81 cc 0b 0d 01 0e 5e 8c 00
       -1.185539e-39 -4.3012187e-38 2.5906074e-38 1.289071e-38
000070 a1 b3 2c 80 f7 23 aa 01 1b ea a9 81 25 c0 9f 81
       -4.1052e-39 6.2499744e-38 -6.241672e-38 -5.868309e-38
000080 ec 24 22 80 21 ac 82 81 51 a2 46 01 62 da 4d 81
       -3.135652e-39 -4.800145e-38 3.6483313e-38 -3.7809235e-38
000090 fd 3e 7f 01 24 78 c9 80 8d 1c 7c 01 0d 92 62 00
       4.6881295e-38 -1.8502033e-38 4.6305574e-38 9.052272e-39
0000a0 e4 3b 58 01 ce 94 91 81 64 d9 83 01 20 7d c3 00
       3.9715904e-38 -5.347811e-38 4.843374e-38 1.7952808e-38
0000b0 a7 9c 95 01 7b 62 2a 81 a9 1c a9 01 ee b7 9f 81
       5.495874e-38 -3.1294725e-38 6.212192e-38 -5.86713e-38
0000c0 73 c8 65 01 9e 80 6a 81 d8 9c 74 00 d8 74 9e 80
       4.2204473e-38 -4.307129e-38 1.0709182e-38 -1.4551924e-38
0000d0 b9 60 9d 81 08 8a 58 81 6b 69 44 00 e1 1c 3d 00
       -5.781148e-38 -3.9771967e-38 6.28263e-39 5.612325e-39
0000e0 1c 32 6c 01 17 20 17 00 3b 6d 1d 01 39 f5 57 81
       4.3382306e-38 2.123728e-39 2.8914715e-38 -3.9665202e-38
0000f0 ee 00 6c 81 ae 58 a1 81 b8 78 60 01 97 2d 82 81
       -4.334702e-38 -5.926931e-38 4.1228914e-38 -4.7819876e-38
000100 f1 f3 8c 00 7a dd 9a 81 38 7c 95 81 15 70 87 00
       1.2944479e-38 -5.688847e-38 -5.49122e-38 1.2438e-38
000110 b5 87 23 00 49 1c 0f 01 44 67 6f 01 26 51 8f 81
       3.262925e-39 2.6285246e-38 4.3971457e-38 -5.2646346e-38
000120 af 32 00 80 a0 03 01 81 30 da bd 80 8e d3 5c 80
       -1.8182e-41 -2.369616e-38 -1.743518e-38 -8.524757e-39
000130 f2 39 79 81 be 11 0a 81 d7 fa 47 00 e5 83 09 80
       -4.577565e-38 -2.5359326e-38 6.610305e-39 -8.73834e-40
000140 28 21 69 01 fc 02 9c 01 37 64 63 81 0a e0 ac 80
       4.281913e-38 5.730963e-38 -4.1765216e-38 -1.5876075e-38
000150 36 49 a3 01 bb 9d 55 80 93 c8 9c 81 6c f1 33 80
       5.9981796e-38 -7.8626e-39 -5.759316e-38 -4.770216e-39
000160 d9 9b 0e 80 22 bc 8a 00 bd 7b 4d 00 d0 a2 60 01
       -1.341605e-39 1.2740788e-38 7.115722e-39 4.1259115e-38
000170 18 5b 60 81 f1 43 82 81 03 3d 9b 81 de dc 21 81
       -4.120766e-38 -4.785195e-38 -5.7025555e-38 -2.9729494e-38
000180 17 cf 98 81 75 1b 64 80 1b 68 b1 80 5d 3d a9 80
       -5.613314e-38 -9.1934e-39 -1.6292229e-38 -1.5542212e-38
000190 93 24 36 81 6c de a6 81 65 5b 28 80 6d 6f 71 01
       -3.345436e-38 -6.129793e-38 -3.706206e-39 4.4344653e-38
0001a0 d3 12 4c 00 41 6b a7 01 53 20 a1 81 48 86 83 80
       6.98625e-39 6.1500013e-38 -5.918844e-38 -1.2078621e-38
0001b0 43 da 4d 80 4a 88 08 81 da 59 28 80 15 9f 65 81
       -7.149631e-39 -2.5077038e-38 -3.705653e-39 -4.2174793e-38
0001c0 a3 50 99 81 31 c7 14 01 2f 91 08 81 7a c7 07 81
       -5.631903e-38 2.732622e-38 -2.508342e-38 -2.49387e-38
0001d0 7a d4 7a 81 51 16 04 01 a7 00 40 80 42 b2 60 01
       -4.6070193e-38 2.4260582e-38 -5.877706e-39 4.1270196e-38
0001e0 fa f1 49 01 33 01 41 00 f7 8e 46 80 8a cb 63 01
       3.709148e-38 5.969737e-39 -6.479771e-39 4.1839347e-38
0001f0 11 11 a1 81 bf 58 9b 01 51 a8 56 01 9b 40 51 81
       -5.916655e-38 5.706535e-38 3.9426353e-38 -3.843359e-38
000200 89 37 58 80 44 fe a7 81 80 c1 aa 01 8a ec 3a 80
       -8.101446e-39 -6.1710965e-38 6.2725796e-38 -5.411313e-39
000210 32 12 13 01 8a 24 89 01 e4 3c 53 81 fb fe a1 81
       2.701269e-38 5.0378283e-38 -3.8798266e-38 -5.950794e-38
000220 b2 34 88 80 ac 97 3c 80 db ca 47 00 f2 d2 9a 81
       -1.2508531e-38 -5.56454e-39 6.593091e-39 -5.687336e-38
000230 43 a0 11 00 dc d2 0f 81 7d b6 41 81 72 59 98 80
       1.618695e-39 -2.6416236e-38 -3.557943e-38 -1.3991082e-38
000240 fb 53 1e 01 ea 9d 2c 01 62 32 a9 81 cd 56 67 01
       2.908027e-38 3.1704708e-38 -6.215309e-38 4.2490276e-38
000250 f3 5f a6 81 98 f1 69 01 0b 87 5d 01 a4 4e 0d 81
       -6.111645e-38 4.2968676e-38 4.0688178e-38 -2.5954032e-38
000260 73 c2 88 80 cd 25 70 01 a4 29 73 81 b2 46 81 00
       -1.2559383e-38 4.410816e-38 -4.4661927e-38 1.187214e-38
000270 c4 8d 4f 80 22 01 1f 00 2a 3a 27 81 8d 55 4b 80
       -7.30586e-39 2.847307e-39 -3.0714786e-38 -6.918352e-39
000280 a2 ee 5d 80 ab df 33 01 0e e8 91 01 7b 5f 13 00
       -8.626306e-39 3.3037582e-38 5.359757e-38 1.779126e-39
000290 d2 12 a4 01 88 34 a7 01 a3 49 70 00 ac 03 23 81
       6.027109e-38 6.142149e-38 1.0311991e-38 -2.9941006e-38
0002a0 34 0b 48 01 b9 45 00 81 23 2b da 00 0e d8 85 81
       3.6742236e-38 -2.355991e-38 2.0035613e-38 -4.916651e-38
0002b0 8e 89 9f 00 97 7d 6f 80 55 0b f1 80 42 71 33 01
       1.4651189e-38 -1.0238793e-38 -2.213642e-38 3.2958366e-38
0002c0 ac 48 0c 00 59 46 80 01 dc 7c 42 80 f8 19 50 80
       1.128096e-39 4.712072e-38 -6.105934e-39 -7.356156e-39
0002d0 91 f8 65 00 0b 67 2e 00 9c b8 94 81 23 ec 42 00
       9.364554e-39 4.261398e-39 -5.4631515e-38 6.145853e-39
0002e0 9b d1 67 80 ea 04 60 00 78 10 09 00 d1 a8 53 81
       -9.534248e-39 8.81797e-39 8.32427e-40 -3.88757e-38
0002f0 0e 72 64 81 7c 0c 0f 81 2c f2 c0 80 b3 7a 00 01
       -4.1958816e-38 -2.627391e-38 -1.771929e-38 2.359792e-38
000300 df d2 2a 00 6b a4 98 81 5e bb 42 81 f9 46 0d 01
       3.932737e-39 -5.607191e-38 -3.5766602e-38 2.594853e-38
000310 7e b7 88 00 e5 6e 12 01 f8 d4 1c 80 eb 9d 76 01
       1.2555452e-38 2.6895528e-38 -2.647793e-39 4.5296365e-38
000320 84 20 ae b9 16 46 0d bc d2 3f cf ba 2e 83 aa 3a
       -0.00033212092 -0.008622667 -0.0015811867 0.0013009065
000330 9b 6a 0a 3c f9 9d 25 bc 2d f3 ca 3b a9 ee d6 3b
       0.008448268 -0.010108464 0.0061935396 0.006559212
000340 b6 49 02 bc a6 c7 ee 3b 8e 2d 96 bb f6 9b a1 ba
       -0.007952144 0.0072869835 -0.0045830673 -0.0012329805
000350 af 33 a6 b9 c2 0a 12 3c 67 95 b4 bc eb 00 3f 3c
       -0.00031700495 0.008913698 -0.022043897 0.011657934
000360 ca 5f 8f bc e0 2a 2e bc 16 8c 26 3c 16 53 00 3c
       -0.01750173 -0.010630339 0.010165235 0.007832309
000370 a8 92 19 3b a6 1e 4b 3b 10 57 b1 3b 55 a8 37 bc
       0.0023433361 0.003099361 0.00541199 -0.011209567
000380 91 ac 8c bb d1 16 1b bc bc 4a f5 bb d8 d7 5a 3b
       -0.0042930325 -0.009465889 -0.0074857157 0.0033392813
000390 17 3d 53 bb 96 98 51 3c fd 56 83 bc d9 c5 43 bb
       -0.0032232457 0.012792727 -0.01603269 -0.0029872565
0003a0 79 6e e7 bb 20 19 d6 3a 78 d7 a6 3c d1 47 0b 3c
       -0.00706273 0.0016334392 0.020366415 0.008501009
0003b0 fc 09 81 b9 31 21 a3 3b b7 00 62 3c ba 1d 19 bb
       -0.00024612236 0.004978322 0.013794116 -0.0023363666
0003c0 b8 37 36 3b 0a 2b 01 bb b0 9a a4 3b e0 62 61 bb
       0.0027804207 -0.0019709491 0.005023323 -0.003439121
0003d0 19 48 a3 3a 55 fd 0c 3c 79 14 63 3c bc 49 b5 3c
       0.00124574 0.008605321 0.0138598615 0.022129886
0003e0 3a 69 ca bb 96 45 d9 3b 90 a6 68 b9 c1 9c 3f 3b
       -0.0061770948 0.0066306097 -0.00022187294 0.002923772
0003f0 90 f1 7b bb 85 3c 52 bc 2e 4b 4f bb 11 9b 1c 3c
       -0.0038443543 -0.012831812 -0.0031630504 0.009558455

fc2.bias f4 [200]
000000 e9 2e 27 02 19 46 1f 3c 97 ab 2c 02 90 de 3d 02
       1.2282685e-37 0.009721302 1.2685808e-37 1.3949399e-37
000010 1b a5 da 3b 88 64 26 3a 10 0f 1c 80 85 eb 59 3c
       0.006672514 0.0006347378 -2.576797e-39 0.013300781
000020 85 78 bd 02 1f a9 30 3d c5 42 f6 01 fd f5 32 3d
       2.7840229e-37 0.043130036 9.046194e-38 0.043691624
000030 0c d8 4b 02 3e a0 11 3d 4f 46 0d 3d c2 17 f5 3b
       1.4976087e-37 0.03555321 0.03449088 0.007479639
000040 1c f1 84 02 c3 dc c6 3c 1e 4e a4 02 4c 5b 2d 3d
       1.9534047e-37 0.02427519 2.4142471e-37 0.042323396
000050 e0 01 e7 3b 58 3a 44 02 ef 71 aa 3c 24 c5 c4 01
       0.007049784 1.441655e-37 0.02080628 7.228191e-38
000060 0a 79 0f 3d fa 63 31 3c c0 42 28 bc 33 1f 30 3c
       0.03502754 0.010827059 -0.010269821 0.010749626
000070 9e 0d 25 3d 60 b3 6a 02 1f 1c 18 02 c7 aa 2a 3c
       0.04029619 1.7243083e-37 1.1175267e-37 0.010416693
000080 bb 51 08 3c 27 90 96 b9 89 4a 8e 02 96 83 36 3d
       0.008320267 -0.0002871763 2.0907806e-37 0.044559084
000090 40 db 02 3d 4e d8 e8 01 15 fc 4c 3c 29 f6 b6 02
       0.031947374 8.553372e-38 0.012511273 2.6883785e-37
0000a0 83 90 54 3b 5f 71 8c 02 d2 47 7b bc 72 18 dd 3b
       0.0032434769 2.0636223e-37 -0.0153369475 0.006747299
0000b0 4e 27 89 3b 13 d7 52 3d 56 41 13 80 41 7c 36 3d
       0.0041855937 0.051474642 -1.768313e-39 0.04455209
0000c0 f9 27 20 3c e3 fd 70 3b ba 32 6b 02 8e 74 8a 3d
       0.009775155 0.0036772422 1.7279631e-37 0.06760512
0000d0 f9 c6 0f 02 0f 5b 39 3d 58 ae 3e 3d d5 73 4e 02
       1.0563083e-37 0.045252856 0.046552986 1.5167732e-37
0000e0 9c 38 46 bc d1 e9 07 00 b5 92 6f 3c 15 6b 54 3c
       -0.012098458 7.26726e-40 0.01462238 0.0129649835
0000f0 3f aa 02 02 71 10 24 3b 55 53 3a 3d 8f b9 d9 01
       9.59975e-38 0.0025034214 0.045489628 7.9979474e-38
000100 29 65 a5 01 51 87 2c 02 cf b8 02 3d 79 94 53 3d
       6.0756585e-38 1.2675398e-37 0.03191453 0.051655266
000110 f1 63 21 3c 56 1e cd 3c d2 38 3e 3d c4 1b 38 02
       0.009850488 0.02503888 0.046440907 1.3526153e-37
000120 13 5b 28 02 1c cf 0e 01 9c 9f 55 01 c4 13 38 3d
       1.2368828e-37 2.6229875e-38 3.9236435e-38 0.044940725
000130 29 08 10 02 65 17 8a 3b f6 5d f1 3c d5 37 f9 3b
       1.0581791e-37 0.0042142146 0.02946375 0.0076055326
000140 f0 0d 77 bc f2 f6 68 02 96 1d 5a 02 a8 cf ca bc
       -0.015079007 1.7115538e-37 1.6024601e-37 -0.024757221
000150 b1 93 06 3d d6 df 9b 3c ca cd 3d 3d db ac 56 3b
       0.032855693 0.019027632 0.046338834 0.0032756838
000160 a1 8a 8a bc c1 19 d4 3c c1 2c 29 3d 0f 7c e1 00
       -0.016911807 0.025891187 0.041302446 2.070749e-38
000170 b5 f8 0a 3d 4b 9e 09 3d 9b a5 ad 01 40 17 f5 00
       0.03392859 0.033598226 6.3787796e-38 2.2508037e-38
000180 44 f2 d7 3a 55 60 25 3d 88 c7 ea 3c ec 9b 3d 3d
       0.0016475399 0.040375073 0.028659597 0.046291277
000190 c6 b5 e6 3b a1 78 e0 3b 1a 15 a2 bc 70 4e 08 3c
       0.007040712 0.0068503176 -0.019785453 0.008319482
0001a0 db b5 14 3b 3c c9 25 3d 3f bd 0c 3d ad 71 eb 39
       0.0022691402 0.040475115 0.034360167 0.00044907388
0001b0 b1 78 c8 3a 74 e6 2b 81 1b 02 d5 3b 5e c9 79 3b
       0.0015294758 -3.1573082e-38 0.006500495 0.003811441
0001c0 4f 17 2d 01 33 67 ab 02 de ab f8 3c 81 1f 94 80
       3.1791805e-38 2.5185425e-37 0.03035539 -1.3602955e-38
0001d0 a1 ea a7 39 f2 53 cc 3b fd 2e 53 02 41 85 7d 80
       0.00032027534 0.006235593 1.5515317e-37 -1.152724e-38
0001e0 fb fe 12 3d 17 c4 7e 01 5f 76 6b 3c 09 da d6 3b
       0.0358877 4.679312e-38 0.014371484 0.0065567535
0001f0 1e 87 2a bc 52 d3 5d 3b 13 ab 17 81 f9 ed 91 3c
       -0.010408191 0.003384788 -2.785706e-38 0.01781367
000200 c6 87 91 bc 8e 11 28 bd 56 57 0e 3d 43 4b 1c 3c
       -0.017764937 -0.041032366 0.03475126 0.009539428
000210 a8 dc 25 3d bc 5e c2 3b 2a a7 cf 3c 70 27 78 3c
       0.040493637 0.0059317034 0.025348265 0.015146121
000220 17 19 f9 3c 6e 4f a8 00 9b fa 46 02 f5 f4 b4 02
       0.030407472 1.5456857e-38 1.4618663e-37 2.6589221e-37
000230 f3 1a b1 3b 2b 08 82 02 d4 3b 04 3d 48 ec b3 bc
       0.005404824 1.9106471e-37 0.03228362 -0.021963254
000240 df 50 17 3c 1b cd 36 3b ee 80 04 3d 14 7e 19 3d
       0.00923559 0.0027893248 0.03234952 0.037473753
000250 5e 49 08 3d 2d 20 99 01 71 25 1b 3c 82 fd 12 3d
       0.033273093 5.6249494e-38 0.009469376 0.035886295
000260 48 c9 ad 02 b1 0b 8a 3c 39 57 f7 3c a7 94 85 3c
       2.5535595e-37 0.016851278 0.030192958 0.016306235
000270 ca 84 48 02 2e 45 13 3d e0 1b 9a 3c 02 7b 1a 3c
       1.4731788e-37 0.035954647 0.01881212 0.009428741
000280 45 ab 96 3b 34 88 94 bc 2b a3 4e 3d 90 ad 24 3d
       0.0045980536 -0.018131353 0.050448578 0.040204585
000290 37 8f 34 02 94 41 22 3c 86 e8 99 3c 8b 73 00 bb
       1.3265412e-37 0.00990333 0.018787634 -0.001960012
0002a0 73 fd 79 bc c4 db 4c 02 72 5c 2f 02 38 e6 4f 3d
       -0.015258181 1.5050623e-37 1.28835e-37 0.050756663
0002b0 3a 8e 17 3d 11 42 df 3b 28 2c 76 bc ef 3e 20 02
       0.037000872 0.0068132957 -0.015025176 1.1773005e-37
0002c0 8d ce 40 3d c4 70 ac 02 b7 5e 0c 3d 84 70 ca 3b
       0.047071982 2.5337853e-37 0.034270015 0.0061779637
0002d0 e5 cc 0c 3d 66 de 8a 00 5d ab 8f 3c 8d 10 ed 3c
       0.03437509 1.275308e-38 0.017537767 0.028938556
0002e0 a6 71 eb 02 4e 46 3b 3d d0 88 9b 3b d0 e9 40 3d
       3.4595378e-37 0.045721345 0.004746534 0.04709798
0002f0 89 84 15 3d eb 15 fd 3c 4f b4 1d 3d b8 17 4f 01
       0.03650335 0.03089424 0.038502034 3.8036913e-38
000300 24 a5 34 bc 31 95 d2 bc 70 5d a2 02 a4 11 84 02
       -0.011025701 -0.025705906 2.385739e-37 1.9405782e-37
000310 0f 4d 09 ba 47 77 a1 3c 63 5e 3c 3d f9 84 1b 3c
       -0.0005237618 0.019710196 0.04598845 0.009492152

fc3.weight f4 [100, 200]
000000 bd b0 4c 80 db 38 aa bc e5 f0 ad 81 7c 3f ae 81
       -7.0429e-39 -0.020779064 -6.389583e-38 -6.40086e-38
000010 78 ca df 3a 09 93 59 bd c8 ad 38 00 dc 4e 1a 3d
       0.001707389 -0.05311874 5.205129e-39 0.037672862
000020 ce 99 2f 00 b3 b8 de 3d 51 04 ab 01 9d 7b d9 3d
       4.371443e-39 0.10875072 6.2821673e-38 0.106192805
000030 e7 2b 35 80 4c 65 af 3d aa 6c 9c 3d df b2 f1 bc
       -4.88303e-39 0.08564243 0.076379135 -0.029504238
000040 19 54 4d 01 b1 96 cb 3c 7d 4d 0a 01 9b 2e a1 3d
       3.771289e-38 0.024852129 2.5402192e-38 0.078702174
000050 3b b0 c1 ba cb a4 48 01 b3 77 53 3d 2d 9b 61 81
       -0.0014777252 3.6852432e-38 0.051627826 -4.1437306e-38
000060 c5 25 99 3d 58 1f 77 3d 70 2e 8f 3c e2 9c 8f 3d
       0.07477907 0.060332626 0.017478198 0.07012345
000070 03 ad 89 3d fc ae ff 00 00 1c 8d 81 72 7a cf 3c
       0.067224525 2.3480824e-38 -5.18354e-38 0.025326941
000080 30 b9 15 3d 73 9c 05 bd 08 5c 3d 81 3b 1d ec 3d
       0.03655356 -0.032619905 -3.4779847e-38 0.11529013
000090 3b 41 a5 3d fc 5b 3d 81 3e be 6c 3d 31 c9 13 80
       0.08069082 -3.4779813e-38 0.057798617 -1.817048e-39
0000a0 07 d2 aa bb 8f 94 7f 80 79 6c 47 3d 68 98 36 bd
       -0.0052130255 -1.1716401e-38 0.048687432 -0.04457894
0000b0 11 4e 6a 3d 5b 97 19 3e 17 11 21 81 6a 8a e4 3d
       0.057203356 0.14999144 -2.958329e-38 0.11159213
0000c0 5d 38 24 bc e3 fd dc 3c 2a e7 99 80 55 b1 2d 3e
       -0.010023204 0.026976531 -1.4133757e-38 0.16962178
0000d0 9e cd ad 81 9a 6e 0f 3e 77 61 10 3e ce d4 3d 81
       -6.384521e-38 0.14007035 0.1409968 -3.4866497e-38
0000e0 ce 39 ad 3c e4 c6 fb 81 18 ba 71 3d 55 32 84 3d
       0.021145727 -9.248823e-38 0.059015363 0.064549126
0000f0 87 98 40 81 ca 26 bc 3c 59 3e df 3d 88 71 43 00
       -3.5374264e-38 0.022967715 0.10900564 6.193706e-39
000100 3f a3 e0 81 26 3b 0a 81 c9 55 0e 3d 97 42 26 3e
       -8.251885e-38 -2.5389034e-38 0.03474978 0.1623634
000110 ce af 71 3d b5 ee 91 3d a6 7e 0a 3e d8 c7 8c 01
       0.05900555 0.07125608 0.13524875 5.171464e-38
000120 8b 45 15 81 6e 61 b0 80 95 6d 48 00 07 e0 f5 3d
       -2.7416872e-38 -1.6197999e-38 6.651466e-39 0.120056204
000130 4e 2b 0a 80 37 c5 7c 3b 23 48 a5 3d 72 ca 45 bd
       -9.3389e-40 0.0038569698 0.080703996 -0.04828877
000140 8e 49 4c 3b 91 01 cc 80 61 6e a7 81 01 a0 d7 3c
       0.0031171772 -1.8735003e-38 -6.15045e-38 0.026321413
000150 49 f2 a6 3d d6 4e ba 3c 24 c1 ee 3d 6a f1 85 3b
       0.08151681 0.02274267 0.116579324 0.0040876167
000160 1e b0 92 bb e5 6f a5 3d 85 15 da 3d 23 bd 3d 81
       -0.004476561 0.08077983 0.10648636 -3.4849516e-38
000170 f1 53 cf 3d a9 66 c4 3d 03 fc 99 81 d0 73 08 81
       0.101234324 0.09589893 -5.656494e-38 -2.5062346e-38
000180 7b b8 6b 3c 47 4d 9d 3d 98 fb 52 3d 2d d8 b8 3d
       0.014387245 0.07680755 0.05150947 0.09025607
000190 44 a9 d8 bc 07 84 ec bc a1 50 44 3d d1 36 a8 3c
       -0.0264479 -0.02887155 0.047928456 0.020533951
0001a0 cc 83 f7 3b c8 c4 bf 3d b7 26 93 3d 38 4a 8f 3c
       0.007553553 0.09363705 0.07185119 0.017491445
0001b0 7f af 48 3b 48 f3 e2 81 19 cb 6f 3d 75 40 30 bc
       0.0030622182 -8.336838e-38 0.0585433 -0.010757555
0001c0 bb a3 7c 80 1a 68 b9 80 c4 ad 9c 3d 12 77 fe 81
       -1.1446337e-38 -1.7026911e-38 0.07650331 -9.347572e-38
0001d0 06 d8 a8 3b 8f 62 fa bc 54 46 90 80 76 3b aa 00
       0.005152705 -0.030564575 -1.324954e-38 1.5633365e-38
0001e0 19 f7 c3 3d dc 0a 07 81 cf 3b 38 3d c4 2b b6 bc
       0.095686145 -2.4803375e-38 0.044978913 -0.022237666
0001f0 b3 81 49 3c 74 f8 81 3c 23 c6 c6 81 c1 b1 e7 3b
       0.012298989 0.015865542 -7.3018025e-38 0.0070707505
000200 62 66 de 3c c0 5a f2 3d 66 da 95 3d f7 c4 a3 3c
       0.02714843 0.118337154 0.07317047 0.019991381
000210 e2 c9 9c 3d 33 40 bf 3c 25 33 7e 3d 25 be a2 3d
       0.076556936 0.023346042 0.062060494 0.079464234
000220 d5 3d 85 3d 03 e9 9c 80 20 11 5c 80 7c f7 56 80
       0.06505934 -1.4409926e-38 -8.455009e-39 -7.986633e-39
000230 16 b1 46 bb 9a 68 7a 80 1b a5 c2 3d 98 de 08 3d
       -0.0030317954 -1.1241455e-38 0.095041476 0.033415407
000240 dd 92 3b ba 19 4d 7e 3c 18 0d b3 3d eb fd f2 3d
       -0.0007155368 0.015521311 0.08742732 0.11864837
000250 01 87 ba 3d 24 53 c2 81 20 f7 5e 3d 5b fa bd 3d
       0.09107781 -7.1383646e-38 0.054434896 0.09276267
000260 f2 ec 90 01 f9 47 d1 bc 82 e8 a5 3d 87 75 a4 bc
       5.3237246e-38 -0.025547015 0.08100988 -0.020075573
000270 d1 2f c2 00 4f 8c c6 3d 9f 77 e8 3c 05 92 63 3d
       1.783324e-38 0.096947305 0.028377352 0.055559177
000280 65 b7 80 bd 52 99 f3 3b 81 6b 02 3e bf 4a cc 3d
       -0.0628498 0.0074340487 0.12736322 0.09975194
000290 fb cd b9 00 df b5 ff bc 9b 94 96 3d 27 93 cc 3c
       1.7063459e-38 -0.031214653 0.07352563 0.024972511
0002a0 db 4e 0d 3d be ba 33 81 14 64 46 80 39 ad fa 3d
       0.03449903 -3.3011089e-38 -6.464386e-39 0.12240071
0002b0 86 8e 76 3d 14 79 c4 bc 3f c1 26 3c b0 41 44 81
       0.060194515 -0.023983516 0.010177909 -3.6046643e-38
0002c0 f0 00 d4 3d 2a 4a e4 80 40 15 aa 3d fb 7a 0e 3b
       0.10351741 -2.0965098e-38 0.08304834 0.0021740783
0002d0 b7 c1 84 3d ae 26 61 81 89 10 35 3d fa fb 8a 3d
       0.06482261 -4.1353725e-38 0.044205222 0.06786342
0002e0 c3 91 4e 80 1a 51 fa 3d 36 bb 99 3a c4 f8 eb 3d
       -7.215458e-39 0.122225 0.0011728767 0.11522058
0002f0 23 d1 b8 3d c6 98 ab 3d 7f 36 ce 3d 5c ca 7c 00
       0.09024265 0.083787486 0.10068988 1.1460194e-38
000300 d7 11 6b 3c 40 c9 6f 3d d3 d8 8f 81 ef 41 4a 00
       0.014347515 0.058541536 -5.284103e-38 6.819479e-39
000310 81 55 f9 bc 24 cb 23 3d 06 5f 09 3e 81 85 07 3d
       -0.03043628 0.039988652 0.13415155 0.033086304
000320 08 a5 df 80 cb 25 fd 3c a5 3e 1d 80 08 40 02 81
       -2.0538518e-38 0.03090181 -2.685702e-39 -2.392317e-38
000330 af 06 04 3c d1 93 1e bd 17 c0 3c 00 1b 79 f3 bb
       0.008058234 -0.038715187 5.579039e-39 -0.0074302084
000340 83 b5 0e 00 e6 45 a9 3d bf 06 91 80 32 81 a2 3d
       1.350811e-39 0.08265285 -1.3318567e-38 0.07934798
000350 6b cc 17 80 5e 73 57 3c 13 66 e5 3c 62 c7 fb bc
       -2.185548e-39 0.013150064 0.028002774 -0.030734722
000360 4b 13 cd 80 13 d7 a3 3c 82 d0 7b 00 7e a5 2c bd
       -1.8833198e-38 0.020000016 1.1370565e-38 -0.042150013
000370 0f e4 8c 3a be da b6 80 af af 5a bd 07 1d b9 00
       0.0010749119 -1.679253e-38 -0.0533902 1.699998e-38
000380 68 70 07 bc 3c 81 40 bc 7c 4e 35 bd 7c 85 fd 3c
       -0.008266546 -0.011749562 -0.0442643 0.03094744
000390 6a cd 17 3d 8c 7b 6b 80 8e d0 3e 00 2d e3 16 3c
       0.037061132 -9.870718e-39 5.768616e-39 0.009209436
0003a0 90 35 fb 3b 88 3f 70 bc 5b 5c 44 80 4d dc 92 bd
       0.0076662973 -0.0146635845 -6.277945e-39 -0.07170925
0003b0 16 ee 3b bc c9 54 21 81 d8 35 27 3d 6b 80 bd 00
       -0.011470338 -2.963186e-38 0.040822834 1.7402976e-38
0003c0 01 13 0f 3c a7 e3 bd 00 cd ac 8a 3c e6 38 29 bd
       0.008732558 1.7438575e-38 0.016928101 -0.04131403
0003d0 b9 b0 a8 3c b6 5f b1 3d 05 37 10 80 63 36 c7 3c
       0.02059208 0.086608335 -1.489105e-39 0.024317926
0003e0 bf 3b ba bb e1 ff 3d bd e6 fe 35 81 56 33 b6 bc
       -0.005683392 -0.046386603 -3.342733e-38 -0.022241276
0003f0 16 e8 cf 80 ec 01 80 ba c9 ec 03 bb c1 7d 3d 80
       -1.9093204e-38 -0.0009766198 -0.0020130149 -5.647077e-39

fc3.bias f4 [100]
000000 6c c1 97 bd 10 18 37 3a 1c 90 80 3b 93 a0 13 3c
       -0.07409939 0.00069844816 0.003923429 0.009010452
000010 0f bb 77 39 a1 c6 19 3a 01 8a 44 3a e5 36 3e b7
       0.0002362544 0.0005866085 0.0007497371 -1.1337664e-05
000020 55 70 13 ba 8e b5 f7 39 55 94 2a b9 f8 65 3b 3a
       -0.0005624344 0.0004724678 -0.00016267721 0.00071486784
000030 60 a0 12 bb 47 4a b5 ba 0b 27 84 3a 90 fc 33 3a
       -0.0022373423 -0.001383134 0.0010082436 0.0006865943
000040 eb 0b c1 b9 10 d8 ca ba 4b 3b 59 3a 24 09 9a b9
       -0.00036820708 -0.0015475769 0.00082867284 -0.0002937998
000050 44 e6 8c b9 f1 0c 1e 38 62 95 13 ba a8 79 4e ba
       -0.00026874442 3.7682188e-05 -0.0005629865 -0.00078764046
000060 1f 5e 96 ba 2c 6a 32 3b 4e 75 73 3a fd 3d cf 3b
       -0.0011472142 0.0027223928 0.0009287194 0.0063245283
000070 95 4f 3e 3a f9 f7 fd b9 f3 b6 c9 ba 90 bf 92 39
       0.00072597835 -0.00048440674 -0.0015389606 0.00027990015
000080 e2 64 a2 39 f3 eb fd 39 81 47 95 bb e7 17 fe 3a
       0.0003097421 0.00048431716 -0.004555643 0.0019385786
000090 c6 55 a6 3a 88 be 77 3b d2 e7 cd 3b 11 a7 70 ba
       0.0012690357 0.0037802774 0.0062837387 -0.0009180168
0000a0 5d f8 be b9 50 4e bf b9 8b bd a9 b9 82 c7 6c 38
       -0.0003642467 -0.00036488706 -0.00032375412 5.645259e-05
0000b0 65 0a 33 ba e9 d4 68 b9 20 2e 45 ba c6 16 d1 ba
       -0.0006829857 -0.0002220456 -0.0007521827 -0.0015952222
0000c0 d6 b3 1f ba ee d8 33 3a 66 b6 03 b9 28 ce ff b8
       -0.00060921663 0.0006860633 -0.00012561082 -0.00012197747
0000d0 ee 41 25 3a 72 4a 87 39 df ea f5 b7 90 dc 07 b9
       0.0006304075 0.00025804673 -2.9315646e-05 -0.00012956769
0000e0 3d 4a f4 b9 b1 15 05 b9 c5 6b 25 ba 3e 63 1c 39
       -0.00046594618 -0.00012691949 -0.00063103094 0.0001491429
0000f0 bf a6 13 ba ce 6c 23 39 ba a5 8a b9 dc 81 88 b9
       -0.0005632452 0.00015585424 -0.00026444887 -0.00026036694
000100 ac 04 75 ba e4 a0 6f ba 6a 35 5f 3a 08 44 d2 37
       -0.00093467045 -0.0009141101 0.0008514734 2.506563e-05
000110 28 b5 83 b7 fe 97 31 3a 00 1c d0 b8 e4 e2 3f 39
       -1.5700774e-05 0.0006774663 -9.923428e-05 0.00018299703
000120 4a 88 d7 b7 fb f1 13 39 6f bd 91 39 2d 92 c7 b8
       -2.5693462e-05 0.00014109157 0.00027797694 -9.516287e-05
000130 00 26 92 39 3d 0f 81 39 95 20 01 38 42 ff 0b 3a
       0.00027875602 0.0002461615 3.078634e-05 0.00053404656
000140 fa 4a f0 36 20 4e 76 39 05 ef c0 39 e4 63 da 39
       7.161286e-06 0.00023489492 0.00036799177 0.00041654625
000150 ec 93 8c 37 dd 0a 79 39 c0 c3 0a b9 f6 a3 64 38
       1.6758182e-05 0.00023750537 -0.00013233628 5.4512137e-05
000160 75 de 31 39 ff f2 06 39 4f 29 ef b8 8d 59 c5 ba
       0.00016962907 0.00012869759 -0.000114041024 -0.0015056595
000170 b8 12 85 3a f2 83 1b b9 e1 d2 9b 39 12 23 c2 39
       0.0010152673 -0.00014831105 0.0002972102 0.00037028693
000180 32 2f 23 b8 0d 53 61 b8 a0 ea 56 38 c6 eb b4 37
       -3.8906182e-05 -5.3721527e-05 5.1240087e-05 2.1567463e-05
