code/LPD_learning/utils/precomputed/P2S_state_2DPCA.pt (torch, 270359 bytes, 6 tensors)

fc1.weight f4 [200, 33]
00000000: d54f 2fbd 05d6 17bd 76d0 853d 1496 21bd
00000010: b1b5 a1bb e3c6 663d a18e 6d3d 7e38 9bbb
00000020: f610 663c 41dd 10bc 4725 0ebd e56d 523d
00000030: f6ef ee3b 82a4 903c e10b 0cbb 62d2 7f3b
00000040: 865f 69bd 4494 82bc 502c ba3c f2d3 833c
00000050: 5daf cbbc 364f 9ebc 6b17 713c 88ce 22bd
00000060: 5039 d33b 355c e03b bc4e 133b adcb 43bc
00000070: 5d25 80bc 5778 be3b ed64 fd3c db37 87bb
00000080: e199 3d3c da8b 123d 8c37 47bd f36f a8bc
00000090: a832 913c efdd 4c3d 7d1c 3cbd c31a 983b
000000a0: 27fe b93c be56 e83c f207 7e3d b2ef db3c
000000b0: c384 14bc a056 49bc 8bec 1bbb ef2f f0bb
000000c0: 50ac 5c3d 285b 0c3c 6364 103b 6678 b7bc
000000d0: bd3f f0bc 3ef2 29bc f838 b33c c816 95bc
000000e0: 8cc0 4a3b 6384 913b 2b1e 61bb f02a 6dbb
000000f0: eacf 08bd addc 3e3b 2cf8 813a cbaf 23bc
00000100: c6ed eb3a f79c d6ba 7727 05bc d439 d03d
00000110: 310a 573d a61a f03b 5719 2a3b d439 d23b
00000120: 5331 cd3b 343d 9fbb 5e06 5abc fa94 07bd
00000130: 7b63 96bd dd08 80bd ba1e 96bb 25e5 16bb
00000140: 970f 033b ce06 7239 b88f 9cbb e26b 32bb
00000150: 955a b23b d39f dbbb 958d c7bb 4287 ee3c
00000160: abff 0b3d 179b 113b 6cc3 b23b 4824 6f3b
00000170: 79c3 8bb9 bfd2 f3b8 3fb8 8e3a 58f9 cb3a
00000180: dd63 3b3b fb8f a7bb 3be9 413a c6d8 db3b
00000190: 4d9c 0fbb f09e 2bbd 7033 87bb 4630 67bd
000001a0: 1762 3dbb b163 153d b092 0b3d 2c4c 743d
000001b0: b49e 333b dd1c f1bc accb 02bc 2315 15bd
000001c0: 3363 f6ba 72b6 7cbd cd0c c939 5eef e33c
000001d0: 1d59 7a3b 9705 80bc 41c3 c2ba c5df 64bc
000001e0: efc1 503c 158c 233d 134b cabb cb18 67bc
000001f0: a3e0 e93b 356c e63c c400 413b a483 3a3d
00000200: ecfb 88ba 0b9d 9dbc d895 e937 357a 3a3b
00000210: 606c 803b a528 70bc ee6f 0fbd cf29 bc3c
00000220: 8823 10bc 9016 b83c 22a7 cabc b9fa 05bd
00000230: 5890 0b3d 4eab dc3c 7e45 7e3c c64b e43c
00000240: 826c 19bc 8f38 233d 74e6 243d 098a 1cbd
00000250: 3a4b eb3c c3bd 46bc 4ae7 cb3b e347 5f3b
00000260: 8c9c ec3b da23 1fbd 7ec7 16bd ff12 cebc
00000270: a580 d9ba 6beb 01bd 88b0 953b 4d8c 963c
00000280: fc7c 99bc ea9f f23b a19e cfbc f3f6 77bb
00000290: 4488 24bb fa30 10bd 6665 2d3d 6179 fe3c
000002a0: 60b7 f53c 057b 8ebc b1bf b0bb 38cf 7d3d
000002b0: 9287 e4bb 5dea b53b 09df a03c 86f6 823c
000002c0: f7de 69bd da40 653b 75ad 87bb c74d ee3a
000002d0: f64d e13b 83c6 3bbd bd3d 3bbd 09d8 bd3c
000002e0: d04c 09bd 5844 81bc 6077 033d 8a00 2dbc
000002f0: a45f 7d3b 1b7e 52bd 82d3 39bc 710e 2e3b
00000300: f0e2 c43a e578 cfbc 1466 d93c ca1d b83c
00000310: 8d2f e13c 1a94 dabb 3998 1abd ec0d 943d
00000320: d13c d03c f325 e73c 7274 36bc d7b1 7e3c
00000330: bd65 863d cebc 0bbc 6add f9ba a6f0 ca3b
00000340: c5c1 073d e675 d6bc fb6d a93b 9995 8abc
00000350: 0f95 b1bb 3379 f1b9 5887 06bc a1b3 31bd
00000360: 1fe9 473c 2b29 55bc 2bdd d9bb 837c 423c
00000370: ae84 17bc b489 62bc 10b0 abbc 73ab 7dbb
00000380: 05d9 223b b141 b5bb 5e90 fdbb a4c3 9c3c
00000390: e4dd 003b 21d3 c03a 9325 11bc afdf 413b
000003a0: c5bf bc3b 4ef3 3b3d 4c7d f73c 42f7 4f39
000003b0: ef58 233d 8463 00bb e3f6 113d 255d 70bd
000003c0: 92d5 6cbc 5782 eabc 2477 45bc 90cb 32bb
000003d0: 85a6 143d f519 043c 064c 8fbd 1dca e53b
000003e0: 3304 fabc bf89 41bc 024e bb3b da05 883b
000003f0: b72d 533c dc76 113d fc40 673b ac44 983c
-0.042800743 -0.03706934 0.065339014 -0.039449766 -0.0049349894 0.056342017 0.05799735 -0.004736959
0.01404213 -0.008841814 -0.03470352 0.051374335 0.007291789 0.017656568 -0.0021369385 0.003903531
-0.056975864 -0.01593984 0.022726208 0.016092274 -0.024863893 -0.01932488 0.014715056 -0.039747745
0.006446041 0.0068469294 0.002247735 -0.011950416 -0.015642816 0.0058126855 0.030931914 -0.0041265315
0.011572332 0.035777904 -0.048636958 -0.020561194 0.01772435 0.05001634 -0.045925606 0.004641862
0.022704197 0.028361674 0.062019296 0.026847694 -0.009064856 -0.012288719 -0.0023792114 -0.007329933
0.053875268 0.008566655 0.0022032491 -0.022396278 -0.029327268 -0.010372696 0.02187775 -0.01819934
0.003093752 0.0044408306 -0.0034350257 -0.0036188923 -0.033401407 0.0029123232 0.000991588 -0.009990643
0.0017999939 -0.0016373683 -0.008127085 0.1016728 0.052499954 0.0073273955 0.0025955045 0.006415585
0.0062619834 -0.004859591 -0.013307182 -0.03310106 -0.07343193 -0.062516905 -0.0045812996 -0.0023024764
0.0019998306 0.00023081453 -0.004777875 -0.0027224948 0.005442927 -0.006702402 -0.006089876 0.02911723
0.03417937 0.0022217685 0.005455425 0.0036490131 -0.00026657784 -0.000116263975 0.001088865 0.0015561981
0.0028593459 -0.0051135994 0.000739712 0.006709191 -0.002191323 -0.04189962 -0.004126005 -0.05644252
-0.0028897577 0.036472026 0.03407544 0.059642956 0.0027407827 -0.029432708 -0.0079831295 -0.03639711
-0.0018797874 -0.06169743 0.00038347245 0.0278241 0.0038200088 -0.015627665 -0.0014859216 -0.013969366
0.01274155 0.039928515 -0.0061735003 -0.014105032 0.0071373745 0.028127769 0.002944992 0.0455357
-0.0010451055 -0.019239923 2.784554e-05 0.0028454189 0.0039191693 -0.014658128 -0.035018854 0.022969155
-0.008797534 0.022471696 -0.024737898 -0.03270981 0.034073204 0.026937153 0.015519498 0.027868163
-0.009364249 0.03984886 0.04025884 -0.038217578 0.028722394 -0.012130204 0.00622264 0.0034069947
0.0072208103 -0.03885255 -0.036811344 -0.025155542 -0.0016594125 -0.031718653 0.0045681633 0.018377448
-0.018736355 0.007404317 -0.025344195 -0.0037836402 -0.0025105635 -0.035202958 0.04233303 0.031063737
0.029994667 -0.017392645 -0.005393945 0.061965197 -0.006974169 0.00555162 0.019637601 0.015986692
-0.0570974 0.0034981281 -0.0041405507 0.0018181138 0.0068757487 -0.045843612 -0.045713175 0.023174303
-0.03352052 -0.01577966 0.032096267 -0.010559211 0.0038661743 -0.051389795 -0.011341931 0.00265589
0.0015021246 -0.025326202 0.026537932 0.022475142 0.027488494 -0.006670487 -0.037742827 0.07229218
0.025419625 0.028216338 -0.011136161 0.01554533 0.06562374 -0.008528901 -0.0019063179 0.0061932383
0.033143777 -0.026179265 0.0051705814 -0.016917037 -0.0054193805 -0.00046057403 -0.008210979 -0.043384198
0.0122015765 -0.0130103035 -0.0066486797 0.011870506 -0.009247942 -0.013826776 -0.020957977 -0.0038706928
0.0024848592 -0.0055315127 -0.007738157 0.019136257 0.0019663507 0.0014711359 -0.008859056 0.0029582789
0.0057601654 0.04588633 0.030211113 0.00019833169 0.039879736 -0.0019590566 0.03563584 -0.05868258
-0.014455216 -0.028626604 -0.012052331 -0.0027281977 0.036291618 0.008062829 -0.06996922 0.007012619
-0.03051958 -0.011812626 0.0057160864 0.004151088 0.012889317 0.035513744 0.0035286536 0.018587433

fc1.bias f4 [200]
00000000: 9f1d b9bc de27 95bb c090 62b8 3a53 82bc
00000010: 744b e93b c789 81ba 0eec 1cbd b888 e33b
00000020: 4220 7bb9 0640 ad3c 9483 443d 7432 553d
00000030: a8d6 b8bc 1094 333d d8df ecb9 a1c0 0bbc
00000040: ce29 333d 8450 3b3d c0b2 b3bc 4649 033d
00000050: e463 ff3c 6d6d 883c d976 aa39 5cff 23ba
00000060: dfcb c0bb f83b a43a 2173 2bbd 91c9 e639
00000070: 7ec5 793c bcec 0bba b86f 0f3b 36a3 eb39
00000080: 8667 c43c 2e57 4e3d 3d6a e03c 733d 40bb
00000090: c089 89ba 3133 4eba c7c1 c73c c934 2e3b
000000a0: 4413 d3ba 211e 053a 3379 303d 64a1 343d
000000b0: cf43 ae3b 2906 45bb 41b3 02bb 005b 4a3d
000000c0: fb19 cd3c 3c78 38bb e5a8 0939 4233 b23c
000000d0: d242 45bd b19b 6a3b b273 14bc e6f8 b9bb
000000e0: d0f6 1dbd baf4 233d 0e44 643a b46f 123d
000000f0: b8a6 a13b 43e1 a5b8 97de 21ba 9e6d 04bb
00000100: 5633 63bc 4f7e 8c3c 9a86 4c3d 5a21 663b
00000110: 87b4 093d 47cc 183d 0e5a 33bd 516d bfbb
00000120: bfd7 443d 3663 ac3c 6445 f43c 878b 9bbc
00000130: 20f9 b63a 41f1 eaba 45c3 c53a 5ce5 3abd
00000140: 010e a03b d6ed 8b39 b052 e0bc 439b 2bbd
00000150: 0253 00bd eb60 3dbd 0d2a d43c 03f0 123b
00000160: 42b8 17bc 2527 90b9 a615 893c 3d8d c83c
00000170: 5de2 313d e649 a839 a353 0e3b e3cd 94bc
00000180: 2f27 aeba f1d3 f13b 0fcb 58bd 2191 8c3b
00000190: 6bc4 203d cc29 183d 22cc 5e3a 6d19 263b
000001a0: fd56 683a f808 f43c a2bf a33c 75c0 ab3a
000001b0: e295 473d 3b4f d63c d0a5 093d 6a29 413b
000001c0: 5398 e23c db23 c5bc 50b2 a33b 32bd 7cbb
000001d0: 286b 913b 02b0 f83c 3c5f 51bd 29b2 033a
000001e0: b1b1 3dbb f889 d0b9 7407 143a 778e bdbc
000001f0: 06d2 eb3c cccb 453d 2afc 073a 1803 0ab9
00000200: 5cad 0f3a 306c b73c de9e f83c 1885 e4ba
00000210: c604 25bb 0b69 203d 8349 37bb 25fd 063d
00000220: 7d25 4c3d 23a8 e03c b790 60bc 26ba 0cbb
00000230: 25b0 aabc ebc6 bf3c bc49 d5bc a3c7 d33b
00000240: 08e5 2cbd d119 0bba 2a16 1f3d 7ef3 7639
00000250: 3a2f 6d3b 9721 223d 0438 ad3c cb12 bdbc
00000260: d02e 8c3c 0b2e 96b9 bd4f e03c 9254 f03c
00000270: 064a e43c 159d 2f3d 2423 09bd 20e4 57b9
00000280: dde2 a23c 2b01 f6b8 ac9e c63c d588 36bd
00000290: a72b 223c aaab f6bc 97a7 cdba 2576 3eba
000002a0: e12d e2bc 0601 063d 6c2b 713c 09c2 44b9
000002b0: 3122 7b3a dce5 cdbc adb8 a23c 8fa5 dc3a
000002c0: 881f 433a 4e25 b53a f065 203d 7d40 8bba
000002d0: 131f 353c 30f4 32bd 21cd 463d af4f 4ebc
000002e0: 8464 00bc 8ded 2239 1f92 99ba 0573 333d
000002f0: 67fe d03c 79c8 52bc 0b14 dc3c dcb7 dc3b
00000300: 8f49 52bd 041d 103c 63e4 1dbb 8a1b b2bc
00000310: 59f5 2dbb e5a6 44bc 0d56 193d ad47 bc3a
-0.022597132 -0.0045518717 -5.4017408e-05 -0.015908826 0.0071195904 -0.000988298 -0.038311057 0.0069437884
-0.00023949242 0.021148693 0.047977045 0.05205007 -0.022563294 0.043842375 -0.00045180204 -0.008529813
0.04374104 0.045731083 -0.02193582 0.0320523 0.031175561 0.01665374 0.00032513475 -0.0006256008
-0.0058836783 0.0012530079 -0.041857842 0.00044019197 0.01524484 -0.00053377054 0.0021886658 0.00044944294
0.023975145 0.05037611 0.027394408 -0.0029333502 -0.0010493323 -0.00078659045 0.024384392 0.0026581755
-0.0016103764 0.0005078037 0.043084335 0.044099227 0.005318142 -0.0030063486 -0.001994327 0.04940319
0.025036803 -0.0028147837 0.00013128256 0.021752957 -0.048159428 0.0035798366 -0.009060787 -0.005675423
-0.038565457 0.04002831 0.00087076507 0.03575106 0.0049332045 -7.9097714e-05 -0.0006174831 -0.0020206938
-0.01386722 0.017150072 0.049933054 0.0035115094 0.03361943 0.03730419 -0.043787055 -0.005841889
0.048057314 0.021043401 0.029818244 -0.01898743 0.0013959743 -0.0017924682 0.0015088102 -0.04562889
0.004884482 0.00026689348 -0.027383178 -0.041896116 -0.031329162 -0.046235006 0.025898958 0.002242089
-0.009260239 -0.00027494985 0.016733956 0.02448141 0.043428767 0.00032098516 0.0021717332 -0.01816458
-0.0013286824 0.0073800017 -0.052928027 0.0042897617 0.03924982 0.037149236 0.0008499046 0.0025344745
0.000886306 0.029789433 0.019988839 0.0013103621 0.048726924 0.026160827 0.033605397 0.0029474148
0.027660524 -0.024064949 0.0049956217 -0.0038564918 0.004437823 0.030357365 -0.051116213 0.00050238014
-0.0028945024 -0.00039775646 0.00056468626 -0.023139222 0.02878667 0.04829006 0.00051874167 -0.00013161858
0.00054808496 0.022390455 0.030349191 -0.0017434685 -0.0025179847 0.039162677 -0.00279674 0.03295626
0.04984044 0.027423924 -0.013706378 -0.0021473258 -0.020835945 0.023410281 -0.026036136 0.0064630075
-0.04221061 -0.0005306276 0.038839497 0.00023551096 0.003619148 0.039582815 0.021144874 -0.02308025
0.017112166 -0.00028644534 0.027381772 0.029337201 0.027867328 0.042874414 -0.03348078 -0.00020588981
0.019883567 -0.00011730412 0.024245583 -0.044564087 0.009898103 -0.030111153 -0.0015690204 -0.000726553
-0.027609767 0.03271582 0.014719825 -0.000187643 0.0009579985 -0.02513402 0.01986345 0.0016834008
0.0007443358 0.0013820322 0.039159715 -0.0010624077 0.011054772 -0.043689907 0.04853547 -0.01259224
-0.007836465 0.00015538018 -0.0011716521 0.043810863 0.025511933 -0.012865179 0.026865026 0.006735785
-0.051339682 0.00879598 -0.0024092428 -0.021741647 -0.0026543944 -0.012002681 0.03743558 0.0014364623

fc2.weight f4 [200, 200]
00000000: d82d 123b e4de 8dbc b45b 683a 78a6 e4bc
00000010: 910f 9abb a0be a039 0357 a13b 1f39 bdbc
00000020: 4844 d839 6ba6 d8bb 7d9c f03b b018 25bc
00000030: ffd1 2c3c 69da b8bc 9641 25bc 032b 023b
00000040: b52c 16bb ef78 8fbb b0c0 58bc 044f 553b
00000050: 3923 6abb 8ca7 38bb b39e 353c 17ab d9bb
00000060: 10e8 13bb 716e 1a3c 3a96 223c 26e8 893b
00000070: d10c 06bb db7c 7dbb 9178 87b9 16e1 44b9
00000080: cff0 33bc 4d53 2e3c 3070 5fbb 0472 f9bb
00000090: 9ae8 803a 5bfe adbb 6fbd 553b 2ab3 02bb
000000a0: 82b8 9dbc 7cc0 373b ce0f fcbb c527 22bd
000000b0: a4c5 2d3a c943 d6bb 3815 123c b896 0abc
000000c0: aebd 70bb 91cd 57bb cd86 59bb fe3b 41bc
000000d0: 5fac 173c 108e 683a 5f03 6ebb 6f49 98bc
000000e0: 71f1 de3b 8a27 eebb b7e8 42bc 7b09 e83a
000000f0: c4db cf3a 1fa9 893b 013e 73bb 2213 d6ba
00000100: f8a1 fcbb 530a 47bc e831 6a3b e93c 4dbd
00000110: 0424 c2bc b76f 833b 29fe 3d3c afc6 0d3b
00000120: e9e1 ca3a 929f 8c3b 261c 4f3b 06bd e3bc
00000130: 0ea3 05bd 3c69 d53b 6ce3 84bb cc4f 5bbc
00000140: de61 5abc 8fc3 9fbb 0ef0 c0bb 6d71 a13b
00000150: 4eb7 bcbb ec76 3f3a e2a9 753b e14e b2bb
00000160: 0076 edbb ef8a bebc 7183 143b ca63 b7bb
00000170: 4050 893c 6831 c53a 8fb6 893b 3ed2 01bc
00000180: 9367 15bc 46fb dcba 272d 013c 5316 35bc
00000190: aad9 c0bc 249d 203c 7d9f 46bc 3d63 6cba
000001a0: a464 0f3c a73d 093c a9fa 2bbc f535 86bc
000001b0: f8ec e6bc 2143 0abd 6909 a1bb 5e7c 873b
000001c0: 6b5a 4abb 50f4 44bc 1c81 39bb e7f6 933a
000001d0: b1f9 353b e578 8538 d89a e7bb b8a3 cb3b
000001e0: c003 3bbb 36d0 15bd bcaa 9dbb 739c 8dba
000001f0: 6b1a 3dba 3b08 04bc cde8 703a c572 b8bb
00000200: c606 5fbb 2c88 11bd 1803 953b 9a5a ed3b
00000210: 2f2b bcbb b5ce 8f3b 0567 8d3b 2709 4c3c
00000220: b087 063c 2abc a5bb 4434 d6bc 252d bdbc
00000230: eebe 47bc ba25 0b3b e062 e2ba 55ca e7bb
00000240: 9d5a f2ba 7c03 c1bb 4916 7b3b da7b f83b
00000250: a9d0 f7bb d672 b8bb da90 16bb 3606 38ba
00000260: 13ea 723b 4910 d6bb f15b 56ba 0e2c 433c
00000270: 5570 bebb dd99 c23b 1e9b 383a ae5f d0bc
00000280: 3bd5 1a3b efc7 25bc 2d3e 45bd 3244 333c
00000290: 60f1 8cbc c255 fbbb 6c30 0cbd cfb8 103c
000002a0: 413f 3ebb 732e 293b 6b1d 37bd d362 803a
000002b0: 2087 c9bb df04 ecbb 63f5 2bbc 08a8 82bb
000002c0: a8bc 853b 84f7 b93b 83e3 4f3c 68bd 8bb8
000002d0: 93e8 033c 6007 34bc 2300 0f3c bd5d b6ba
000002e0: fd97 20ba e95d 5a39 a24f a7bc 497b 7c3c
000002f0: db78 9b3c 687c a4bb b99e 49bb c8cf 533b
00000300: f921 013c 0975 423c 844e d63b 5d98 81bc
00000310: 67df 02bd a604 123a 849b 49ba 63f1 a53a
00000320: 0a3c 923b 43fe 14bc 9160 0a3c 93e7 8c3b
00000330: 9ce9 a8bb d091 443c 353b c73b d62c 203c
00000340: 7cd4 64bc 4eb9 643c 6e91 823b 40fd 1ebc
00000350: ba23 b2bb cf6e ae3c b963 05bc ccef c0bb
00000360: 0c7a 113c 847f c1bb 4dfb 41bc 8e16 bf3b
00000370: 0c7a 433c 9784 9a3b e04c df3a eb89 22bc
00000380: 5df6 b1bb 784c 833c 627d 43bc da72 b43b
00000390: 6240 3a3c d6ac 6cbc 1951 0c3b 34f9 9c3b
000003a0: 58c2 ccba 3e4d bb3b d817 90bc 5d6f e6bb
000003b0: ea11 87bc 95ad a739 94aa 84bc b28d a1b8
000003c0: 7302 48bc a09a 973c 129c cabb 1df9 07bc
000003d0: 564f be3a d580 53ba 4987 803b 3649 a13c
000003e0: fb1d 1ebc 2a78 5dbb bb19 bbba 294d a6bc
000003f0: 2d67 663c deda 4dbb d552 ab3b 3cdd 48bb
0.0022305157 -0.017318197 0.00088637625 -0.02791141 -0.0047015627 0.00030659605 0.0049237027 -0.023098527
0.00041249604 -0.0066116354 0.0073428736 -0.010076687 0.010548114 -0.022565084 -0.010086438 0.0019862063
-0.002291483 -0.00437843 -0.013229534 0.0032548318 -0.003572656 -0.0028176038 0.0110852 -0.00664271
-0.002256874 0.009425745 0.009923512 0.0042085825 -0.0020454417 -0.0038679156 -0.00025839036 -0.00018775868
-0.010982706 0.010639978 -0.0034093969 -0.0076124687 0.0009834946 -0.0053098626 0.0032614132 -0.0019943216
-0.01925302 0.0028038314 -0.0076923138 -0.03958871 0.0006628877 -0.0065388423 0.008916192 -0.008458786
-0.0036734152 -0.0032928924 -0.003319192 -0.011794088 0.009257405 0.00088712666 -0.0036317927 -0.018589703
0.0068036844 -0.007267897 -0.011896304 0.0017703021 0.0015858342 0.004201069 -0.0037115815 -0.0016332606
-0.007709738 -0.012148458 0.0035735313 -0.050106917 -0.023698814 0.00401112 0.011596241 0.0021633317
0.0015478703 0.004291483 0.003160247 -0.027800094 -0.032626204 0.006512789 -0.004055431 -0.013385724
-0.013328997 -0.0048756073 -0.0058879917 0.0049268515 -0.0057591563 0.00073037925 0.0037485291 -0.005441532
-0.0072467327 -0.023259608 0.0022661353 -0.0055966126 0.016761899 0.0015044631 0.004202671 -0.007923661
-0.009118932 -0.0016859553 0.0078843 -0.011052686 -0.02354129 0.00980309 -0.012122986 -0.0009017473
0.008752022 0.0083765155 -0.010496774 -0.01638315 -0.028189167 -0.033755425 -0.004914452 0.004134699
-0.0030876647 -0.012021139 -0.0028305715 0.0011288793 0.0027767236 6.3644526e-05 -0.0070680194 0.006214585
-0.002853617 -0.03657552 -0.004811613 -0.0010804072 -0.00072137144 -0.008058603 0.00091899635 -0.005628916
-0.0034031137 -0.035530254 0.004547488 0.0072434666 -0.0057424526 0.004388655 0.0043152594 0.012453354
0.008211061 -0.0050578313 -0.026147969 -0.023092816 -0.012191517 0.0021232204 -0.0017271899 -0.0070736804
-0.001849014 -0.005890308 0.0038312844 0.0075831236 -0.007562716 -0.005628924 -0.0022974522 -0.00070199685
0.0037065789 -0.006532703 -0.00081771525 0.011912359 -0.005811731 0.005938752 0.0007042157 -0.025436249
0.002362563 -0.010118469 -0.048155 0.010941552 -0.01720494 -0.0076701352 -0.034225866 0.008833124
-0.0029029401 0.002581504 -0.04470579 0.0009795077 -0.0061501414 -0.007202729 -0.0104955165 -0.003987316
0.0040813275 0.005675258 0.01268852 -6.663316e-05 0.0080510555 -0.010988086 0.00872806 -0.0013913434
-0.00061261636 0.00020825084 -0.020423714 0.015410253 0.018978527 -0.005019713 -0.0030764772 0.0032319892
0.007881635 0.011868724 0.0065401215 -0.015819723 -0.031951334 0.00055701507 -0.0007690715 0.001266044
0.0044627236 -0.009093824 0.008445875 0.0043000667 -0.0051548015 0.011997655 0.006080056 0.009776315
-0.013966676 0.013960196 0.0039846217 -0.009703934 -0.005436388 0.021293072 -0.0081414515 -0.005887961
0.008879196 -0.0059050936 -0.0118397 0.005831546 0.011930954 0.004715513 0.001703646 -0.0099205775
-0.00543098 0.016027674 -0.011931749 0.0055068554 0.011367889 -0.014445504 0.0021410643 0.0047904495
-0.0015621884 0.005715995 -0.017589495 -0.0070323185 -0.016488034 0.0003198205 -0.01619462 -7.703471e-05
-0.012207615 0.018506348 -0.006183156 -0.008299139 0.0014519494 -0.00080682087 0.0039223772 0.01968823
-0.009650703 -0.0033793547 -0.0014274636 -0.020300465 0.014062685 -0.0031410973 0.00522838 -0.0030649444

fc2.bias f4 [200]
00000000: 556c 193d ee23 9aba 4a01 3b03 d0e9 8403
00000010: 9749 3603 6c1e 8703 b06b 41bd f892 1a3d
00000020: dea7 963b 517b 4d3d 2d9e 313d 03b5 d53b
00000030: c7f6 0a3d 8e62 aa3b fe09 003d 51ec 8803
00000040: eb3e 983b e927 3903 5cf4 a13c 3c46 6d03
00000050: 581a 283d 29e6 e0b9 47d3 1d3d 2aaa a3bc
00000060: ecea 1b3b b468 2403 3ffc 8e3c 7f5f 4d3c
00000070: 5156 9a3c cfd1 f63b 182e 8403 3c1d 6203
00000080: fed0 a33b 19c6 b33c 8713 6803 e8bd 853b
00000090: fa5f 1c3d 52e5 983c 28c4 7703 3d25 9ebc
000000a0: 88e1 f93c 3e9f 3d3d 532a cd3c 5256 003d
000000b0: 69d1 5d03 d3ae 2c3d 241e 143d 839f 4e3c
000000c0: d595 3203 1900 71bc 8757 6d03 7cdb 7a03
000000d0: b36c 443d 31df 6203 7d88 333c dfa3 5b3c
000000e0: c9a3 b73b e04c bfbc 4932 f73c b168 89ba
000000f0: b3b8 453c 52af f53c 0c56 073d 0e1d 8703
00000100: 02a7 0c3c 94db a9bc d49d 9b3c 1f00 6e3b
00000110: 4da9 5e03 9825 bf3b a991 963c acfb a8bb
00000120: 393f 883c b0f6 3c03 ef69 173d 4a15 74bb
00000130: ad5a 6203 8b40 b6bc a5d7 8f03 97b7 0d3d
00000140: 99a3 5a03 6972 103d 60cd 023d 5319 ae3b
00000150: 6df1 8503 bddb 3e3d 52ea 7c3b 0087 043d
00000160: a85f 293d d3c3 09bc 17e5 043d 8c16 fbb9
00000170: 171f 263d cb7b 07bc 2caf 9a03 0ce1 8203
00000180: 4078 5503 dbee 543c 8553 003d eb12 883d
00000190: 1f25 5c3c 82f0 f639 8a59 7603 fe74 593c
000001a0: f64c 423b 84f0 1c3d 2cc3 bc3c 53eb 093d
000001b0: 3a4c 123d f949 8437 7594 ba3a 2e07 6c03
000001c0: c289 8403 d351 023c 7a76 6603 ac94 873c
000001d0: c06a 89bc a49f 3e03 2505 54bc 500a 7b03
000001e0: 9f7e 2e3c 675d 2803 06ca 103d 5d03 283c
000001f0: 3be9 4f03 f2a1 4a03 90dd ca3b ac6c 3d03
00000200: f303 7a03 aa9c b63b a241 213c c663 343d
00000210: 7929 4803 b40b 103c bd53 433d b33a bf3a
00000220: 43fb 9dbc 2290 1103 881a 8603 74a4 5e03
00000230: c089 c03c 421e 2f3d a0a1 803c c4f2 7203
00000240: 08e7 80bc 798f 403b ee6a e23c 4318 3e3d
00000250: 7571 8503 dde1 e33b 5257 ca3c 0b31 7e03
00000260: 7f3b 5f03 940c fe3a 403a 9d3b c4d8 eb3b
00000270: f139 293d 57d9 4b03 3fa5 b1bc 2712 223a
00000280: 43d7 ad3a 3dfb 3d3b 65c4 3d3d 0883 8b03
00000290: c711 283d 02d3 6e03 fc87 75bc a82d 1c3d
000002a0: 23f0 05bc 2c73 41bb 17ea 7e03 e2f6 7d03
000002b0: ff7d 5203 3328 7fbb 3a7a 163c f652 6f03
000002c0: 797b 223d 6225 3b3a eb70 3603 2af5 4303
000002d0: 8988 623a a9ed 6103 1837 cd3c 1b46 debb
000002e0: 10f5 7e03 1cca cf3c 7d29 953a d68e d13b
000002f0: 1f07 5bbb 8bdc 103c a48d 3b3d 548b da3c
00000300: ab73 243d 01e3 5e03 a34e 5703 85d4 ac03
00000310: d670 bb3b 3b13 2a3d 6f84 0a3d 345a 3dbb
0.03745683 -0.0011759975 5.495584e-37 7.811943e-37 5.356947e-37 7.941571e-37 -0.04722184 0.037737817
0.004597648 0.05016643 0.04336374 0.0065218224 0.03392675 0.005199737 0.03125953 8.047617e-37
0.0046461723 5.441243e-37 0.01976984 6.9728665e-37 0.04104075 -0.00042896092 0.038531568 -0.019978601
0.0023791147 4.831546e-37 0.017454265 0.012534975 0.018839987 0.0075323354 7.768845e-37 6.644899e-37
0.004999279 0.021945046 6.820109e-37 0.0040814765 0.038177468 0.018664036 7.2811952e-37 -0.019304866
0.03050305 0.046294443 0.025044596 0.03133232 6.5186454e-37 0.042158913 0.036161557 0.012611273
5.2481497e-37 -0.014709496 6.9748517e-37 7.3720353e-37 0.047955226 6.667164e-37 0.010957834 0.013405769
0.0056042415 -0.023352087 0.030175345 -0.0010483471 0.0120679615 0.029990826 0.033041045 7.9412575e-37
0.00858474 -0.020734586 0.018996157 0.003631599 6.5434284e-37 0.005833339 0.018380003 -0.0051569548
0.01663171 5.553142e-37 0.03696626 -0.0037244135 6.651952e-37 -0.022247573 8.454294e-37 0.034598913
6.4252243e-37 0.03526536 0.031934142 0.0053130775 7.872466e-37 0.046596278 0.0038591814 0.03235531
0.04135099 -0.008408505 0.03244504 -0.0004789125 0.040556993 -0.008269261 9.091524e-37 7.6923815e-37
6.2733114e-37 0.012996401 0.03132965 0.06644233 0.013436585 0.0004709997 7.239569e-37 0.013272522
0.0029647923 0.03831531 0.023042284 0.03367169 0.035717227 1.5770072e-05 0.0014234917 6.936241e-37
7.78989e-37 0.007954079 6.772693e-37 0.016550384 -0.016774535 5.601924e-37 -0.01294068 7.377411e-37
0.010650306 4.9477983e-37 0.035348915 0.010254708 6.109957e-37 5.954837e-37 0.006190963 5.5666857e-37
7.347293e-37 0.005572875 0.009842308 0.044040464 5.8822326e-37 0.008791853 0.04768728 0.0014589637
-0.01928485 4.2777127e-37 7.881903e-37 6.542872e-37 0.023503184 0.042753465 0.015702069 7.139609e-37
-0.015735164 0.0029382391 0.027638879 0.046409857 7.843086e-37 0.0069544152 0.02469984 7.470019e-37
6.560211e-37 0.0019382411 0.0047982037 0.0071974713 0.041315023 5.990583e-37 -0.02168524 0.00061825145
0.0013263006 0.002898886 0.046329875 8.199769e-37 0.04103258 7.018414e-37 -0.0149860345 0.03812948
-0.008174929 -0.002951811 7.4912613e-37 7.4633425e-37 6.185809e-37 -0.0038933873 0.0091844145 7.033102e-37
0.039668534 0.00071390544 5.3614616e-37 5.7586784e-37 0.0008641561 6.6394378e-37 0.025050685 -0.0067832596
7.492521e-37 0.025364928 0.0011380162 0.006395201 -0.0033420993 0.008841644 0.045789376 0.026677765
0.040149372 6.5500524e-37 6.327309e-37 1.01580435e-36 0.005720238 0.041522246 0.033817705 -0.0028892877

fc3.weight f4 [100, 200]
00000000: a9fc a43d b076 da3c 9836 0e82 c001 8681
00000010: 42e0 cf81 fa7a 6b81 5d98 333e 5f02 013e
00000020: 3a1d 073d 2002 043e 2b16 f03d 4966 b73a
00000030: 3765 a53d 4d18 363c 1922 7c3d cbbf d181
00000040: a690 e03c b091 1c82 b4d1 1d3d 0f94 0b82
00000050: c2bf c93d c246 143d d673 d23d 7c2e 653d
00000060: 5789 49bd ea51 0a82 30a9 a8bd e505 95bd
00000070: 9d96 9d3d daf5 a6bb d843 6481 2c75 f081
00000080: 8460 a2bc 9841 6c3d b6c7 f681 56c3 3e3c
00000090: 01e8 f63d cbf4 983d 3799 2c82 8a71 863c
000000a0: f8c1 a03d 160d 023e 7746 f13c 7afd b03d
000000b0: 8cd7 0b01 abfa ef3d e40b c23d d843 863d
000000c0: 724c 3282 564f de3c 25eb 2982 eb8c 0581
000000d0: 910d 0b3e ac78 d381 2880 2d3d d740 0ebc
000000e0: 7b25 6ebd f21e ff3c 4933 803d 599a c83c
000000f0: bf65 523d 4c82 923d 73b2 f93d 595b 0082
00000100: bf35 f8bc e120 c03c e47d b53d 733f a03d
00000110: dff4 3181 dca1 403b 1140 863d bb54 983c
00000120: 3edc 22bd 29a6 ec81 1beb f23d 2aa3 773d
00000130: 3472 e980 4c9b 603d 7236 b581 3750 ef3d
00000140: 5ae7 3981 d50a bf3d 43f2 c83d 9e08 debc
00000150: a259 2c82 434d 1c3e d38b 0f3d 911c 903d
00000160: 15d0 d23d 3d49 a63c 66d5 d23d edc2 703c
00000170: 2375 d63d 6539 783d a489 8f81 2dc4 dd81
00000180: 45af 3c82 5b3d 823d 22ef b43d 516f 4e3e
00000190: 33f7 1abc 077f 6bbc 754e b281 ee94 ac3c
000001a0: 9526 703c 00f4 d83d de6b a03d e9e7 c03d
000001b0: 3f0f 063e ba9a 2ebb 6ccc a33b 408a dc81
000001c0: 2e14 9981 2793 7dbc 60f0 5480 d61d 973d
000001d0: 39b4 ac3c 618f 1d80 09ce e33c 29cb 2c80
000001e0: 5ee6 723d 9115 c481 fab1 523d a863 943d
000001f0: 0065 8181 f7e7 1782 80c8 7839 eb2e 0382
00000200: 0d10 1b00 8c28 623d c7bf e2bc b41f cb3d
00000210: 6582 ee81 c76e 61bc f2e3 aa3d 6a0a a2bc
00000220: e95a ad3c eb1f f281 1a8d 9881 e365 a181
00000230: 6a15 4a3d ff34 cd3d 368b b43c a432 a181
00000240: d3a8 b83c 8dee 14bc 8daa 9f3d 2f71 0c3e
00000250: d82f 3281 c022 cbbc b29e d13d 602c e000
00000260: 857a a581 ef71 a53b 4a0e 50bc 8d30 9b3b
00000270: d814 0a3e d4e8 0182 0252 823d 9698 103d
00000280: b1f3 843c 5d7e 003d a729 d83d d3b0 e981
00000290: 7b58 0f3e 132d f181 1f0d 243d fd2a cf3d
000002a0: 1ba8 b73c 5306 db3b 1b94 4e81 07a6 9381
000002b0: 9884 0382 dc5e a53c 7baf 87bc d755 6782
000002c0: ee64 c83d c3c7 573d de9e 0d82 66ab 8081
000002d0: 21c1 0ebd 1744 1d80 e605 953d 3dea 013d
000002e0: be8f c381 15bb 853d d593 0abc acd8 103c
000002f0: 0a60 233d ee60 89bc a4a4 f73d 8dee 893d
00000300: 1cd1 043e fa6f 3782 094c 1e82 ee37 5481
00000310: c88a e53b b868 033e f3a5 543d c902 ba3c
00000320: 45f2 e7bb 02e8 ff3c 5548 0880 a2f3 8e81
00000330: 8884 c581 8e85 c481 0cc7 853d f409 073d
00000340: aa5b b3bc 888a 913d 5b6d eabd 6969 0d3d
00000350: d1c7 32bc d090 52bc 4c06 cf3c e133 cb81
00000360: f4a9 dc3c acbb 4a81 b7c9 7d3d bce4 e581
00000370: 041a 9dbc e307 623d f227 c0bb cee0 e03b
00000380: 021c 87bc 1733 cb81 c0ba d2bc b1ce 97bb
00000390: 1bb0 1a3d c908 083c a37e cb81 9e5f 0082
000003a0: 106a ef3c 7f44 f53c e2d9 cf80 e52e d1bc
000003b0: 2a9f 973d ab3a 1439 37f8 1581 e6f6 c5bb
000003c0: 9c05 84bc 4e16 1cbd 9862 2ebd 164e b4bc
000003d0: 450b 9781 cff2 febc 4513 08bd bf7b c13c
000003e0: c28c c081 6198 993c 6c6f 8881 ae2b f580
000003f0: bf4f 8c3c 2688 a781 dc11 ea3c 886a 5fbc
0.080560036 0.026667923 -1.044818e-37 -4.9226337e-38 -7.6361585e-38 -4.3250915e-38 0.1753859 0.12598561
0.032986857 0.12891436 0.11722978 0.0013992275 0.08075946 0.011114192 0.061555956 -7.7049684e-38
0.027412724 -1.150288e-37 0.038530067 -1.0254598e-37 0.09851028 0.036200292 0.10276 0.055952534
-0.049203243 -1.0162147e-37 -0.08235395 -0.07276515 0.07694743 -0.0050952258 -4.1925662e-38 -8.833021e-38
-0.019821413 0.057679743 -9.06527e-38 0.011643251 0.1205597 0.074685656 -1.2680535e-37 0.016411562
0.078494966 0.12700304 0.029452546 0.08642097 2.5684915e-38 0.11717733 0.09474924 0.06555909
-1.3099313e-37 0.02713744 -1.2483642e-37 -2.4529346e-38 0.13579394 -7.7682314e-38 0.042358547 -0.008682451
-0.058141213 0.031142686 0.06259782 0.024487661 0.051366564 0.071537584 0.121922396 -9.43017e-38
-0.030299066 0.023453178 0.08861902 0.07824602 -3.2685452e-38 0.002939335 0.065551884 0.01859509
-0.03976082 -8.6931137e-38 0.11861249 0.06045834 -2.1438639e-38 0.054835603 -6.6567024e-38 0.11685222
-3.414512e-38 0.09328238 0.09811833 -0.027103718 -1.2662288e-37 0.15263848 0.035045456 0.070366986
0.10293595 0.020298595 0.10294609 0.014694911 0.10471561 0.06060161 -5.272741e-38 -8.1464077e-38
-1.3862359e-37 0.06359359 0.088346735 0.20159651 -0.009458351 -0.014373547 -6.5499454e-38 0.021067109
0.014657636 0.10593414 0.07833074 0.09419233 0.13091753 -0.0026642517 0.004998734 -8.1013616e-38
-5.623228e-38 -0.015476978 -7.800412e-39 0.07378738 0.02108203 -2.714664e-39 0.027808206 -4.113642e-39
0.059301727 -7.2029975e-38 0.051439263 0.072455704 -4.7532044e-38 -1.1160299e-37 0.00023725815 -9.637825e-38
2.485316e-39 0.05521445 -0.027679337 0.09918156 -8.76145e-38 -0.0137593215 0.08344258 -0.019780356
0.021161513 -8.894256e-38 -5.603845e-38 -5.928826e-38 0.04933683 0.10019874 0.022039037 -5.9214725e-38
0.02254144 -0.009090078 0.07796202 0.13715051 -3.2727763e-38 -0.024796844 0.10235347 2.058707e-38
-6.0787234e-38 0.0050489823 -0.012698719 0.0047360123 0.13484514 -9.544242e-38 0.06363298 0.035301767
0.016229482 0.03137051 0.105548196 -8.584441e-38 0.13998596 -8.8594097e-38 0.040051576 0.10115621
0.022419026 0.0066841035 -3.7942485e-38 -5.423751e-38 -9.662413e-38 0.020186834 -0.016563168 -1.6995835e-37
0.09784876 0.052680742 -1.0404637e-37 -4.726572e-38 -0.03485215 -2.687655e-39 0.07276516 0.031717528
-7.1837947e-38 0.06529824 -0.008458097 0.008840721 0.03988651 -0.016769852 0.120919496 0.06734953
0.12970394 -1.3476852e-37 -1.1629828e-37 -3.8978378e-38 0.0070050694 0.12832916 0.051916074 0.022706406
-0.0070784413 0.03123856 -7.60632e-40 -5.251216e-38 -7.2556544e-38 -7.219067e-38 0.06532106 0.032968476
-0.021894295 0.07106501 -0.11446639 0.034524355 -0.010911898 -0.012851909 0.025271557 -7.4644865e-38
0.026936509 -3.7236188e-38 0.06195995 -8.444953e-38 -0.019177444 0.055183303 -0.005864137 0.0068627363
-0.016492847 -7.4643733e-38 -0.025723815 -0.004632794 0.037765604 0.008302876 -7.475214e-38 -9.431396e-38
0.02922538 0.029939888 -1.908811e-38 -0.025535056 0.07403405 0.00014136235 -2.7545063e-38 -0.0060413955
-0.016115956 -0.03810721 -0.042574495 -0.02200989 -5.548481e-38 -0.03112164 -0.0332215 0.023618577
-7.073164e-38 0.018749418 -5.011839e-38 -2.2515366e-38 0.01712787 -6.1541475e-38 0.02857297 -0.013636239

fc3.bias f4 [100]
00000000: 0ce0 94bd 4327 32bb a3fc 55ba dda5 b03a
00000010: 070d a137 0f77 b239 afa7 83ba 20fe 31bb
00000020: 5628 8839 f6e2 6cbb fdf3 29bb a049 fa3b
00000030: 17e6 583a 8e50 b5bb d9fd 5ab9 b6c8 88bb
00000040: ca3a 5539 7663 803b 2211 49ba 3e63 ff3a
00000050: d1b7 aa3a 105e 3f3a 1597 d339 cf43 e0ba
00000060: 27fc d2ba b137 903a 5477 653a d11f 373a
00000070: 8081 37ba 530d d239 1e61 30bb e46d c23b
00000080: 2609 293a cede eb39 b584 a1b8 2afa 46ba
00000090: a5ed 9f39 951d e53a 14f6 4939 5820 8b3a
000000a0: 16b0 3d3b 043f 7038 b342 1eba cc7b 84b9
000000b0: a01f 163b 46bd 1d3a 430c 26ba a953 2939
000000c0: 32b6 2d3a c71b 9237 fda0 feba 4ece 8d3b
000000d0: 4d22 f6b7 1c35 8fba 9865 5fb8 c61f 7fbb
000000e0: 4a66 8f3a 3a5c 4a3a bb05 94b9 51d3 36bb
000000f0: be70 a03a 6d8c c939 20f7 7139 fde5 0f39
00000100: bfed ecb8 caf5 0d3a dc5c bd39 7347 48b8
00000110: 38e8 94ba 686a 8f39 b7b4 aa3a 9cf3 aabb
00000120: 4707 0eba d362 c13a 1409 8939 1808 ab3a
00000130: 8f3d 95b9 8aef 1c3b fbe8 2bb9 b09f 12ba
00000140: e3b2 9f3a e1b5 0d3a d6a6 113a d387 c939
00000150: 0a3d a7b9 e868 04ba ca1d fab9 84d8 94b9
00000160: e4e5 dcb9 47b9 7c37 5f86 263b 0ab7 1abb
00000170: f5d9 15ba d01d b53a c1b7 b1b7 3146 51bb
00000180: 37ac d539 c373 e5b9 5c61 7639 52ba d939
-0.07269296 -0.0027184046 -0.0008162951 0.0013477165 1.9198762e-05 0.0003403951 -0.001004448 -0.0027159527
0.00025969994 -0.0036146021 -0.0025932782 0.0076381713 0.0008274032 -0.0055332845 -0.00020884666 -0.0041743172
0.00020335164 0.0039181067 -0.00076700945 0.0019484533 0.0013024752 0.0007300088 0.0004035762 -0.0017110052
-0.0016096876 0.0011002925 0.0008753438 0.0006985637 -0.0007000193 0.0004006425 -0.0026913355 0.00593351
0.00064482016 0.00044988695 -7.701797e-05 -0.0007590378 0.00030503902 0.001748013 0.00019260525 0.0010614498
0.0028944067 5.7279147e-05 -0.00060371606 -0.00025269238 0.0022907034 0.00060172786 -0.00063342246 0.00016148262
0.00066265755 1.7417491e-05 -0.001942664 0.004327572 -2.9341458e-05 -0.0010925862 -5.326196e-05 -0.003892885
0.0010940519 0.00077194313 -0.0002823303 -0.002789695 0.0012240631 0.00038442333 0.00023075612 0.0001372322
-0.000112976406 0.00054153486 0.00036118075 -4.7750258e-05 -0.001136071 0.00027354364 0.0013023828 -0.005217029
-0.00054179545 0.0014754183 0.0002613744 0.0013048677 -0.0002846536 0.0023946487 -0.00016394623 -0.00055932533
0.001218405 0.0005405825 0.00055561715 0.00038438904 -0.000318982 -0.00050510326 -0.0004770591 -0.00028390076
-0.00042132952 1.5063509e-05 0.0025409681 -0.0023607635 -0.0005716377 0.0013818089 -2.1185611e-05 -0.0031932706
0.00040754836 -0.00043764533 0.00023496657 0.00041528285
